checkpoints/intersect_IT_T_8.pth (torch, 137655 bytes, 8 tensors)

0.weight f4 [128, 2]
00000000: 0f40 bfbe eb02 2c3f f683 c2be 8b86 12bf
00000010: 20b0 99be fb87 13bf d84b 93bd 08dc 0a3e
00000020: d370 a1be c83a 883e dd56 8c3e dfcf 133e
00000030: 1fba 883e a9f5 1abf b91c e5be 47c4 9b3e
00000040: b043 f03d e74a 6a3e 7814 06bf cd38 23bf
00000050: a73c 833e 02c8 f7be c5fa 81be 925d 283f
00000060: 9939 d8be 48ba d03e 4292 19bf 0b8a 3ebf
00000070: 4995 843e 519c 77be 4516 013f eef9 00bf
00000080: ec45 2cbe 0f77 a53d 1909 a8be 4969 973d
00000090: 0506 a03e 8d38 37be 72b7 15bf 0663 233f
000000a0: 7b87 f1be 3028 11bf 7cbd 113f ea35 973d
000000b0: 1e09 de3e 393c 8c3d f497 febe 3280 a33e
000000c0: ec69 04bd 5a5e 883e 44c4 47be 5199 1cbf
000000d0: 65c6 e03e 1416 fdbe 01d6 dd3d f691 34bd
000000e0: e84e 78be d359 ef3d 7bbf 903d 9a72 003f
000000f0: 2084 843e a2d5 803e bb02 8d3e 218c b2be
00000100: 4b97 193f 4edc 043c 110d fe3e b1b9 233f
00000110: 35e4 c6be 5b9b dabd 7de1 4f3e b20a 0abf
00000120: fe72 a9be b334 d63e 4226 2bbf 20ba b83e
00000130: 55f4 7e3e 82fd 70be 7226 20bf ee5c 653e
00000140: 4c21 b0bd ffa6 003f 5ccd 87be 69df 2e3c
00000150: f7ac 0fbf 2571 013e 73e2 513e a8b8 503e
00000160: 27fd b33e f5dd 4abd 980f ed3e 9e03 eb3e
00000170: 83e7 eb3c e562 e6be 45c8 bb3d 1fd7 cfbe
00000180: 45b2 10bf 8392 2e3f 6b75 ec3e 88f9 6cbe
00000190: 90e3 9fbe 089e e0be aef7 4d3e 2433 2fbf
000001a0: 37eb abbe 968a 473e f274 2abf 647c 2b3f
000001b0: de5f 0d3e 5264 f1be 47fa a13e 0652 27bf
000001c0: b87c e43e d750 07bf 2b68 9d3c eabd 243f
000001d0: 88ef 98be 6b46 a23d 255e 98be e35b 71be
000001e0: d2fa f53e 28a6 d5bd 3a2e 25bf ab4f 9a3d
000001f0: 8f02 a03e bd52 173f 5a79 4c3e 73bf 263e
00000200: 88ff 56be 0713 00bf 82e7 febd 5ad9 2bbf
00000210: f725 36bf ecda 813e 55ae 433f ba0a 80bd
00000220: e2fb 663e aee9 e5be ad76 e4be 515e bb3e
00000230: 6579 03bf 34d9 433e 157a 2abe 3223 c13e
00000240: a2db 96be 2b18 d83d 28d9 da3e 16b1 0c3e
00000250: 3d17 c43e e0a4 153f 0a7b c33e ea26 34bf
00000260: 59a6 1fbe a795 6abd f2dc dc3e 93d8 d83e
00000270: 42c6 573c d4d3 9ebe 1213 79bd 26b7 81bd
00000280: cfa2 4dba 0d63 00bf 64d3 c5bc cd26 3b3e
00000290: 6124 c5be 22c0 713e 9565 0a3f 29ec 70be
000002a0: 791a 9e3e 47be cbbe 16ab 493f 0728 433e
000002b0: 4fe3 88be 3180 ff3e 9395 f03e cb20 203f
000002c0: 917b 3c3f 9074 2c3e 2afb d93e cc67 673e
000002d0: 72e4 07be 7927 033f bf95 19bf 2270 af3e
000002e0: 64f4 be3d 2204 bebd 1fad cb3e 192c ab3e
000002f0: 9576 8fbe 1ea0 9dbe eea0 563b 0fe9 193f
00000300: 77bf 09bf 9206 e0be dcf5 cd3e c18f c3be
00000310: 1a31 993d d141 633e 8386 47be 69b3 d5be
00000320: 9382 68bd d996 25bf b883 27bf 9bbf 4bbe
00000330: 923a e33e 6845 663e 4002 31bf e22f eb3d
00000340: 0a97 003e 5904 993e 9880 8c3d f90b d83e
00000350: f686 71be 7e96 ccbe 3893 f7be 2ae3 ddbe
00000360: 4267 8f3e 8253 38bf fa22 07bf 68a5 24bf
00000370: d29e 9fbe 5a4a 81be f0f8 19bf 1ef7 90be
00000380: fdd6 2f3f 86f3 903d 8deb 52be 073e 403e
00000390: b03d 1abf bd0f cebe 90ac 7a3e 2ff6 053e
000003a0: 72c9 883e 802f a23e 39f1 02bf 1748 923b
000003b0: 3d8a 6f3e 72eb 79be f6b0 b1bd a4c2 dc3e
000003c0: 6804 073e 561b be3e 6a7d f83e 0634 a3bd
000003d0: b5cb dbbe 535b 1e3e 5f2f 833e 19a5 23bf
000003e0: d401 5a3d 7a6a 1abf 6982 99bd 8164 bfbe
000003f0: 3d8f eb3e 70d9 11bf 3ba6 d93e 5dec 203f
-0.3735356 0.6719195 -0.37991303 -0.57236546 -0.30017185 -0.57629365 -0.071922004 0.13560498
-0.3153139 0.26607347 0.2741002 0.14434765 0.267045 -0.605311 -0.44748476 0.30423185
0.1173166 0.22880135 -0.5237498 -0.63758546 0.25632212 -0.4839478 -0.25386634 0.65767777
-0.42231444 0.4076712 -0.59988797 -0.74429387 0.25895146 -0.24180724 0.50424606 -0.5038136
-0.16823548 0.08079349 -0.3281944 0.073931284 0.31254593 -0.17892666 -0.5848304 0.6382297
-0.47173676 -0.56701946 0.56929755 0.0738333 0.4336633 0.06847424 -0.49725306 0.31933743
-0.032327577 0.26634485 -0.19508463 -0.6117144 0.43901363 -0.49430907 0.10831834 -0.04408451
-0.2424885 0.116870545 0.07067772 0.5017487 0.25882053 0.2516299 0.27541146 -0.34872535
0.5999648 0.008109165 0.49619344 0.6395522 -0.38845983 -0.10674163 0.2030086 -0.5392257
-0.33095545 0.4183708 -0.6685525 0.36079502 0.24897893 -0.23534206 -0.6255866 0.22398731
-0.08600101 0.50254816 -0.26523864 0.010673382 -0.561233 0.12640817 0.2049654 0.20382941
0.35154077 -0.04952808 0.4630096 0.45901197 0.028796917 -0.44997326 0.09169058 -0.40593812
-0.5652202 0.6819231 0.46183333 -0.23142064 -0.31228304 -0.43870568 0.20114014 -0.6843741
-0.33577892 0.1948646 -0.66584694 0.6698668 0.13806102 -0.4714685 0.3163626 -0.6535953
0.44626403 -0.52857727 0.01921471 0.64352286 -0.29870248 0.079235874 -0.29759327 -0.23570208
0.48042923 -0.104320824 -0.6452366 0.07534727 0.31251952 0.59110624 0.19968167 0.1628397
-0.20995915 -0.50029033 -0.124465 -0.6712853 -0.7115168 0.25362337 0.76437885 -0.06252046
0.22557023 -0.44904846 -0.44621792 0.36595395 -0.5135711 0.19125825 -0.16648133 0.37722164
-0.29464442 0.10551485 0.42743802 0.13739428 0.3829898 0.58454704 0.3817981 -0.7037188
-0.155908 -0.057271626 0.43137318 0.42352733 0.013169827 -0.31020987 -0.060809202 -0.06333761
-0.000784439 -0.5015114 -0.02414865 0.1827652 -0.38504317 0.23608449 0.5406125 -0.23527588
0.30879572 -0.39793608 0.7877668 0.19058238 -0.26735923 0.4990249 0.46989116 0.6255004
0.7362605 0.1684134 0.42574435 0.22598189 -0.13270739 0.51232105 -0.5999412 0.34265238
0.093239576 -0.09278132 0.39780518 0.3343208 -0.28020158 -0.30786222 0.003274973 0.60121244
-0.5380778 -0.43755013 0.40226638 -0.38195613 0.074800685 0.22193076 -0.19484906 -0.41738442
-0.05676515 -0.646833 -0.6543536 -0.1989731 0.44380623 0.22487414 -0.6914406 0.11483742
0.12557617 0.2988613 0.06860465 0.42196634 -0.2358664 -0.39958566 -0.48354506 -0.43337375
0.28008467 -0.7200242 -0.52787745 -0.6431489 -0.31175858 -0.25252038 -0.60145473 -0.28313535
0.6868742 0.070776984 -0.20597668 0.18773662 -0.6025038 -0.40246382 0.2447989 0.13082193
0.2671619 0.31676865 -0.51149327 0.00446416 0.23392577 -0.24406222 -0.08676331 0.4311725
0.13185275 0.3713023 0.48533183 -0.07968907 -0.42928854 0.15464525 0.2562208 -0.63923794
0.0532244 -0.6031872 -0.07495577 -0.37381366 0.4600772 -0.5697241 0.42509636 0.6286066

0.bias f4 [128]
00000000: ebc0 a9bb b6a1 92be f70a c7be 4274 0d3f
00000010: 8124 4ebd c86d 28bf 3cba 8cbe 91e1 3d3e
00000020: 52cc fcbe 6d29 d13d 8c6f 9c3e 3c74 1ebe
00000030: 46ae 783d a683 0dbe 2c28 093f d61e 0abf
00000040: 741e 0abf aacc 123f a594 bb3e 9e52 84be
00000050: d73e da3e 2d54 6ebe 73e6 e0be 52e1 073e
00000060: 69e2 b83e 69f2 9cbe 4f61 b93e d2b7 dcbe
00000070: 2bf7 163e 7b3e 28bf faa5 d0be 222f 6b3e
00000080: b151 363f 79a3 b4be 61f0 c43e ef83 2d3f
00000090: f1ba fcbd 216a dc3e 59fc 093e 0f01 11be
000000a0: 4d62 b5bd 197f 08bf dbe9 d13e 6dbb d9bc
000000b0: 631b 183f 2ee4 653e 4e89 f0be 3b85 c53e
000000c0: 8da7 ebbe 66b7 0d3f bfdf bf3c 15cd 023e
000000d0: fcc2 17bf f4e6 d1be 3eee d33e 5c50 d3bd
000000e0: a980 273f b75c 273f 5538 8abe da66 79bd
000000f0: 226e 28bd b957 283f 9257 113f 1be3 283f
00000100: 0bef 033f e1d7 7b3e 1d46 c9be 3c51 58be
00000110: ea31 04be cbd8 743e 0d1b a03e 96ca e9be
00000120: d7c7 febe 788d 653d 00a3 8abe 19ae 23bd
00000130: 5d48 643e 73ac 033f dada eebe 197c c13e
00000140: ab56 cd3e ef15 0fbe b383 1abf 8a38 61be
00000150: 0a31 f2be 797e 78be 7b85 11bf 3e32 d3be
00000160: dbc0 b6be 3109 1dbf f2ab 533e 1969 7ebe
00000170: 5524 333e ad94 413e 1586 813a da6c 943d
00000180: 10d8 8ebe 1197 e4be 2400 053f 51e6 063f
00000190: d8ed 0ebe 453d 01bf bf30 4d3e fa00 b0bd
000001a0: ca33 13bf acab 20bf 73ca 223f 398d 0f3f
000001b0: 6761 00bf 85e7 21bf 3b17 2cbf d307 a63e
000001c0: 2436 223f 405d 62be ebdd 04be 640c 0c3d
000001d0: eb3c febe a6a4 7f3e d126 fd3d ee6d 53be
000001e0: c11a 9b3d e460 803e c2c2 a7be d9d2 c5be
000001f0: 02c3 1d3d 4bf7 f53c 11a8 bb3e 4390 74be
-0.0051804683 -0.28639 -0.38875553 0.5525552 -0.05032778 -0.6579251 -0.27485836 0.18543078
-0.49374634 0.102129795 0.30553854 -0.15474027 0.060713075 -0.13819751 0.5357692 -0.539533
-0.5395272 0.5734354 0.36636844 -0.25844282 0.42626068 -0.23274298 -0.4392582 0.13269547
0.36110237 -0.30653694 0.36207053 -0.43108994 0.14742725 -0.6572034 -0.4075163 0.22967198
0.712184 -0.3528097 0.38464645 0.6777944 -0.12340344 0.4304972 0.13475169 -0.1416056
-0.0885664 -0.53318936 0.4099873 -0.02657863 0.5941679 0.22450325 -0.46979755 0.3857821
-0.4602627 0.5535797 0.02342212 0.12773545 -0.592819 -0.40996516 0.41392702 -0.10318062
0.65430695 0.65375847 -0.26996103 -0.060889103 -0.041120656 0.65758854 0.56774247 0.65971535
0.51536626 0.2459407 -0.39311305 -0.21124738 -0.12909666 0.23910825 0.31270638 -0.45662373
-0.4976184 0.05604312 -0.27077484 -0.039960954 0.2229323 0.5143501 -0.46651345 0.37789991
0.40105185 -0.13973211 -0.6035721 -0.21994224 -0.4730304 -0.24266995 -0.568443 -0.4124927
-0.35694012 -0.6134215 0.2067106 -0.24844779 0.17494328 0.18904372 0.0009881879 0.07247324
-0.27899218 -0.44646505 0.5195334 0.52695185 -0.13957918 -0.50484115 0.20038126 -0.08593936
-0.575009 -0.6276195 0.63590163 0.56074864 -0.50148624 -0.63243896 -0.67222947 0.32427844
0.6336386 -0.22105885 -0.1297528 0.034191504 -0.49655852 0.24965152 0.12360919 -0.20647404
0.07573462 0.25073922 -0.32765776 -0.38637426 0.038516052 0.030025145 0.36651662 -0.23883156

2.weight f4 [128, 128]
00000000: d6ba ebbc 565a 5f3c 9dc1 393d 9e16 8e3d
00000010: 33b4 90bc 49f4 2fbd 1f87 c3bd 3e38 81bd
00000020: 5932 6c3d c64f ddbb 0de0 8b3c 2f41 14bd
00000030: 2f5c b73d 8d34 943d 6220 5a3d 342a 5b3c
00000040: 9d55 1c3d 849f 743c 1edc 86bb 38e1 943d
00000050: 0c98 b5bc 4099 25bd 1720 a0bc 94e8 6b3d
00000060: 7c70 d33d 9070 0f3d 1c41 223d 8ea0 72bd
00000070: 6b11 473d 47c6 ac3d 5eb5 373d 5993 ab3c
00000080: a31e 3abd 2815 b3bb 5fd3 be3d 07c7 14bd
00000090: 0c8e f4bc a264 b03d 6b02 9abd f095 523d
000000a0: 526e abbc ab0f 4f3d 044f ae3d 1aee 5cbc
000000b0: bb72 b83c ef85 a1bd 0f79 7a3c ae5d bebc
000000c0: cca9 873c fe49 953b fd4c 273d e14a dd3c
000000d0: edb3 7abb 4050 263e 2c52 88bb 85a2 0c3d
000000e0: e7ac b0bd 7de3 2fbd bb59 7d3d 7b7f 4ebb
000000f0: 6e0a aebc 2774 4dbc d19e a43d 7bc2 01bd
00000100: 445f 88bd a28c 843c 2fa0 503d a852 613d
00000110: bb0e 9ebd d616 2e3d 0e21 1d3d e917 18bd
00000120: 4bf1 50bd b385 17bd f36b 1fbd 0ae9 4f3c
00000130: fb07 8d3d c951 c9bc 30f6 983d 3b0c 543d
00000140: 2b81 493d 7c3e 8fbb a562 96bd c8ff 603d
00000150: 6601 6cbc 40fc 9f3d 9042 f53c c703 8ebd
00000160: 2b15 29bd bc6f c03c 83b7 303d e254 ec3d
00000170: 1326 faba 8fd5 97bc c1d0 37bd ea76 193b
00000180: db37 f2bc 7356 823d a385 b53d 533f 0e3c
00000190: 328d cbbc 028e 033e 0b6e 12bb 79b3 0c3d
000001a0: fa91 ab3d f135 e9bc a60c 7e3c e3d6 10bd
000001b0: e219 a2bd d1e1 eabd 6527 ed3c 626d 0c3b
000001c0: b67f ad3c 53b5 143e 690f 573d 68db 01bd
000001d0: fb75 61bd 68aa 78bd cf50 1dbd b775 1a3e
000001e0: 1286 82bd 72f9 0fbd 0e70 323d 926f 433d
000001f0: 9768 f73a 9c01 bb3d f859 5bbd 852f fc3c
00000200: 53c6 eb3c a7bb eabc 6d76 883c 396c dd3c
00000210: a0c6 143c b82b 75bd a0c6 d73c a830 6c3d
00000220: f792 14bc 6ab1 9b3d b237 733c 6a40 85bc
00000230: b70b 32bd c5a9 8c3d 37f6 a93b 308c ddba
00000240: e70f 5fbd 8494 bb3c afc2 383d f85e 80bd
00000250: 488c 9b3c 3fdb 353d 31e1 27bd ee52 9abd
00000260: 90a9 133d 65eb 573d 72e1 983d 2ebd 8b3b
00000270: 1917 363d 92fc 483d 0e85 a8bc e064 bcbc
00000280: 3c5c 983c 2825 2fbc 82ee 463d 04cf 9b3d
00000290: 0160 823c e4e2 0a3d b373 9a3d bdc0 6dbd
000002a0: 74d3 44bd c349 183c 6cad 193d 371a 2d3c
000002b0: da36 0fbd 7f47 113c a803 a8bd 39ae 9e3d
000002c0: 62d6 9abd 391b 583d e735 5f3d 241f 863d
000002d0: 1345 98bc e8a4 c6bc 2116 4ebd 3667 d33d
000002e0: 1d1d c33d 4dec c6bc c1b6 483d 0c36 ac3d
000002f0: 4186 4f3d 3a29 e03c 9aec 103d c221 b3bc
00000300: e458 aebb 27fa c3bc efd9 9cbd 975e 0e3e
00000310: 549f 1c3d 5a7c 3ebd 7c46 72bd 9e3a 113c
00000320: 82dc 0c3b 1491 083d f901 233d da32 eebc
00000330: e07d 00bd ab54 4d3c 4b78 00bd 406d 47bd
00000340: 6a82 c83d 92d6 313b 87fc 8ebd d6bd e83d
00000350: 305d 01bd a6ce 873d 6f45 74bc c5f4 dd3d
00000360: 2c78 9cbc af49 7ebb d60e 6ebd a4d0 583d
00000370: bbc9 d6bc 8bb5 d53d 3883 38bd c1f5 3bbd
00000380: 9ffa a7bc 0954 efbb 3efc 703d 8b54 74bd
00000390: ad0e 01ba 11bb ad3d 429f 2b3c 41d9 00bc
000003a0: a2e4 74bd c6c9 ac3d 562b 95bd 8cfb 9dbc
000003b0: 8b05 963d 56d8 9e3d 8d1e 1abc 37db b7bb
000003c0: 2359 a33d 6f2a f3bc da8a 303c dd72 6abd
000003d0: 22ed debc 75da 91bc f0be 82bd 800a b0bd
000003e0: bd43 313d 2955 e63d 8b2c b6bc bbb0 1cbd
000003f0: 1341 983c f417 bebc 13a7 b13c 4972 f33d
-0.028775614 0.013632378 0.04535066 0.06937908 -0.01766405 -0.042957578 -0.09547257 -0.063095555
0.057665203 -0.0067538945 0.01707461 -0.036194976 0.089531295 0.07236586 0.05325354 0.013376761
0.038167585 0.01493061 -0.0041155955 0.072695196 -0.022167228 -0.040429354 -0.019546552 0.05759485
0.10324189 0.035019457 0.039612874 -0.059235148 0.048600595 0.08436256 0.0448507 0.020944284
-0.045439374 -0.0054651685 0.093176596 -0.03632262 -0.02985289 0.08612944 -0.075199924 0.051412523
-0.020926628 0.05055205 0.08511165 -0.013484502 0.022515645 -0.07886874 0.015287652 -0.02323803
0.016560458 0.0045559397 0.040844906 0.027013244 -0.0038254217 0.1624155 -0.0041601863 0.03433468
-0.086267285 -0.04294156 0.06185315 -0.003150909 -0.021245208 -0.0125399 0.08038104 -0.03167961
-0.066587955 0.01618034 0.050934013 0.055010468 -0.07717653 0.042502247 0.0383616 -0.037132178
-0.051011365 -0.03699274 -0.038921308 0.012689838 0.06886288 -0.024575131 0.074688315 0.051769476
0.04919545 -0.0043714624 -0.07343034 0.054931432 -0.01440463 0.07811785 0.029938966 -0.06934314
-0.041279953 0.02349078 0.04314376 0.115396276 -0.0019084833 -0.01853445 -0.044876818 0.0023416826
-0.02956765 0.06364145 0.0886338 0.00868209 -0.0248476 0.1284714 -0.0022343423 0.034350846
0.08377452 -0.028468104 0.015505945 -0.035361182 -0.07915093 -0.11468852 0.028949449 0.0021427502
0.021179061 0.14522295 0.05250493 -0.031703383 -0.055044156 -0.060709387 -0.038407143 0.15083967
-0.06373228 -0.03515 0.043563895 0.047713824 0.0018875775 0.09131166 -0.053552598 0.030784378
0.028781092 -0.028653933 0.016658032 0.027029144 0.009080559 -0.059856147 0.026339829 0.05766359
-0.009068242 0.076021984 0.014844822 -0.016266067 -0.043468203 0.068683185 0.005186822 -0.0016902741
-0.054458525 0.022897966 0.04510754 -0.06268114 0.01898779 0.044398542 -0.040986244 -0.07535349
0.03605038 0.052714724 0.07464875 0.0042644953 0.04445562 0.049068995 -0.020571258 -0.02299732
0.018598668 -0.010690011 0.048567303 0.076078445 0.015914919 0.033907786 0.07541599 -0.058045138
-0.04805322 0.00929493 0.037518904 0.010565332 -0.03496442 0.008867144 -0.082038224 0.07748074
-0.075604215 0.052760337 0.054494765 0.06548908 -0.018587625 -0.024248555 -0.050314073 0.1032242
0.09527037 -0.024282599 0.049002413 0.08408746 0.050665144 0.027363408 0.03538189 -0.021866683
-0.005320655 -0.023922993 -0.07658755 0.1390327 0.038237885 -0.04650531 -0.05914925 0.008864073
0.0021493738 0.033341482 0.039796803 -0.029076982 -0.031370044 0.012532393 -0.03136472 -0.048688173
0.097904995 0.002713595 -0.069817595 0.11364333 -0.03158301 0.06631212 -0.014909132 0.10837702
-0.019100271 -0.0038801243 -0.058119617 0.05293335 -0.02621924 0.10435017 -0.045047015 -0.045888666
-0.020505248 -0.007303719 0.058834307 -0.05965094 -0.00049231463 0.08482946 0.010474982 -0.007864297
-0.059788354 0.08436923 -0.07283656 -0.019284986 0.07325276 0.077561066 -0.009406698 -0.0056108492
0.07975986 -0.02968332 0.010775292 -0.05723845 -0.027212683 -0.017804364 -0.06384075 -0.08595753
0.04327749 0.11246712 -0.022238037 -0.03825448 0.018585717 -0.023204781 0.021686113 0.118870325

2.bias f4 [128]
00000000: ee14 ccbc 63d9 fdbb c749 95bd 6055 44bb
00000010: ee89 2bbd 0d51 89bd 72e3 7e3b 4ddf 82bd
00000020: c746 16bd 55f1 553d c742 713b af49 633d
00000030: 7bb4 7bbd f28f 91bc 851c 0abc aa13 9f3d
00000040: bb6f 69bd dcd2 283d 8a29 9f3d faee 62bd
00000050: f0d9 883d 33d6 893d 5c75 1dbd 9cb3 86bd
00000060: b99d 2e3d dc0f 9c3d 929f 1cbd 2b0b a73d
00000070: 529e 633d dc34 b23c 7178 c7bc f51d a23a
00000080: a575 25bd 1c3b a83d eb00 99bd 4b0f 1d3d
00000090: c2b2 74bc 96f0 dabc 2571 5fbd 7f0e 51bc
000000a0: 07b3 613b 198a 9dbd 47cf 79bc ffb9 a2bd
000000b0: d66b a0bd 115e 403d 4376 1abd 89cd 703d
000000c0: 4bb4 89bd c2e2 9abd 318f 893d 6345 39bd
000000d0: e014 9d3d 8e42 b2bc e128 bb3d fb36 a5bd
000000e0: 8153 1ebc 3136 e9bc 9cb3 853d 01e7 8fbd
000000f0: bf89 633d 1858 85bd d2c5 30bd 763b 0b3c
00000100: 4083 1e3b 8425 9dbc 3850 86bc d69a 6f3c
00000110: 5908 9a3d 8db4 383d 4635 c63c 9299 333d
00000120: 8def 91bd fd85 e73c 4998 37bd 04f2 c13c
00000130: 198e ac3d 54e0 20bd bdb3 f23a bd17 fe3c
00000140: 1c8b ef3c 42eb 5d3a cf22 c13b a9e7 803c
00000150: 4369 45bd f176 79bd 517d c03d 0b74 fabc
00000160: bb4e 9f3c eeda 91bd 6e8b 623c 74f5 62bc
00000170: 43c0 79bd deca 48bd 6dfc 843d 7cca 1fbd
00000180: 6368 413c 5995 d03b f7fc 893d 2273 bd3c
00000190: 43bd ddbc 986a 7fbc bda2 5fbd 3436 ae3c
000001a0: a51f 183d 5745 0cbd 11a9 61bd eda7 bcbd
000001b0: d857 343d f900 023d 4c0e 753d dd9e 01bd
000001c0: 57c2 783d e47c 313d 7337 4a3d e233 f23c
000001d0: afbf 45bd 2d1c 2a3d 15d7 8dba fc34 973c
000001e0: aba0 07bd 10a5 05bd 4f5c a03d ac03 8c3c
000001f0: 4e74 f03b f733 883d 8a30 083d 0f10 5bbd
-0.024912324 -0.007746862 -0.072894625 -0.0029958114 -0.041879587 -0.06704912 0.0038892892 -0.063902475
-0.036688592 0.052232105 0.0036813484 0.055490192 -0.061451416 -0.017768834 -0.008429651 0.077674225
-0.05699132 0.041216716 0.07771595 -0.055403687 0.06682193 0.067303084 -0.038442 -0.065772265
0.042630885 0.076202124 -0.038238116 0.08156427 0.055570908 0.021753721 -0.024349423 0.0012368547
-0.040395398 0.08214399 -0.07470878 0.038344663 -0.014935197 -0.026726048 -0.054551262 -0.012759804
0.0034438984 -0.07692356 -0.015247173 -0.07945632 -0.07833068 0.04696471 -0.03771044 0.058789764
-0.06723841 -0.07562782 0.06716765 -0.045232188 0.07669997 -0.021760251 0.091386564 -0.08067127
-0.009663464 -0.028468223 0.065283984 -0.070264824 0.055551287 -0.06510943 -0.043157406 0.008498063
0.0024187118 -0.019182928 -0.016395673 0.014624318 0.075211234 0.04509406 0.024195325 0.043847628
-0.07125769 0.028262133 -0.044822965 0.023674972 0.084255405 -0.039276436 0.0018516701 0.031017179
0.029241137 0.0008465537 0.005894042 0.015735464 -0.04819609 -0.060904447 0.09398902 -0.030572912
0.019446721 -0.07121836 0.013827188 -0.013852466 -0.06097437 -0.049021594 0.06493459 -0.039011464
0.011804673 0.00636546 0.06737702 0.023126189 -0.027067786 -0.015589379 -0.05459856 0.02126608
0.037139554 -0.034245815 -0.055092875 -0.09211717 0.044029087 0.03173921 0.059828088 -0.031645644
0.060732212 0.043331996 0.049369287 0.029565755 -0.048278507 0.041530777 -0.0010821546 0.018457882
-0.03311221 -0.03262812 0.078301065 0.017091595 0.0073380833 0.066505365 0.033249415 -0.05348211

4.weight f4 [128, 128]
00000000: d7c9 a5bc 62c8 0bbd c9f5 78bd 3c05 bfbd
00000010: e441 23bd cc82 1bbd b65b da3c 8bef 233c
00000020: e527 af3c d515 75bb 796e a2bd d600 24bd
00000030: e4f5 6a3d e4b2 683d 6f9c 6b3b 2889 8c3d
00000040: 4f84 143c 4018 00bd 4c68 30bc 5128 683b
00000050: bbfa 083d 979a 563d 5fd0 0dbd aa48 7ebd
00000060: 13b4 2cbc eefd 9f3b 2b24 0d3d a8dd f73c
00000070: b016 383d 2784 4ebc 2812 74bd 4726 593d
00000080: ffd5 5a3d 0d67 7c3d d905 1b3c 3cf8 a0bd
00000090: 1219 0e3d 4e1f 41bd a5fc 933d 6f7e 6c3d
000000a0: 77d4 903d 520e 6f3b 4f7d b83c 46b9 7fbd
000000b0: b644 7a3d 7b3b 9fbd 837d 90bd 79ab 843c
000000c0: 51fa 33bd cd8d 783d 9401 29bd 42d1 1d3d
000000d0: 5a10 b7bd 9113 22bd 47fa 48bb 867b 333d
000000e0: 62f2 94bb 3c59 a73c e050 b03c 799a 64bd
000000f0: 0ff4 b93c 0996 89bd 5ba6 a83d 0092 673d
00000100: 9f1c a13c 90ec 703d d606 e6ba 4ebc 453d
00000110: 98f2 743d 822c 9bbd afc8 a6bd fbce 33bc
00000120: 9f47 ab3d 2ca0 d63b e8c0 46bd dc5c aabd
00000130: a507 343d ff23 1c3d 9ece 8f3d 126c 04bd
00000140: 770f 36bd fcd3 3dbb ad54 3d3d 72ba 45bc
00000150: e4fc 92bd 3581 7a3d 5d7c 00bd 2b1f 53bd
00000160: 9fdf 1f3d 1435 853d d5a8 84bd d6b6 88bd
00000170: f46c 9a3c a58d 243d c6c1 26bd 13f7 8bbd
00000180: 6cd1 8d3d 8ce4 9bbd b109 bbbd eb37 80bd
00000190: f5ad 66bd 78ae 353d fc00 a3bd e665 023d
000001a0: 8f06 833d 91e2 8ebd c433 a8bd fb82 fd3b
000001b0: 9f68 413d 8fcd 86bd b1dd 7abd e755 0ebc
000001c0: 3518 81bc 6ddf 763c 936b f53c 757d 72bd
000001d0: 307f 87bd 13bb 78bd f2f1 333c 8679 9b3c
000001e0: da61 2ebd d9ad 42bd 8a51 42bd 0cf4 abbd
000001f0: 89f9 2e3d eab8 0a3d f7bc bcbd 1980 b5bd
00000200: 7450 96bc 1a0e f53c 7a83 9e3d f02d 973d
00000210: 6675 21bd bde2 08bd 3ba3 b23d abce cb3c
00000220: c50f 7d3d ad1d 243d 1e33 8abd 0343 b63d
00000230: 24ec e73c ea7f 7ebd eb2a 34bd 170d a2bd
00000240: 9d61 71bd bb0d 253d c8be c0bc c0ce 4b3c
00000250: 58b5 9dbd 4fe6 00bd 6d3d 9ebd 0cae 66bb
00000260: f6ed 55bd 8a2e 483d 72cf a9bd be18 31bd
00000270: 0d8a 6b3d 9cfd 52bd 3844 203d 2540 d1ba
00000280: 0fbf b83b 9465 853c bbaf 6abc 9805 a73c
00000290: 6e64 74bd 2c2f b33c 479f 803d 5c75 27bd
000002a0: f4ba a73d 6ad5 19bd 102e a23d ece5 5d3d
000002b0: 4e7b cf3c 7e7a ad3d e5b7 8c3d 1263 cc3d
000002c0: 1ffb a63d 8aef 22bb c8ba 85bd f427 07bd
000002d0: cc71 963d d2a1 553d 7637 a33d 2e6b a7bd
000002e0: d18b 9a3d a299 28bd b909 e9bc d897 30bd
000002f0: f4ba b43d b9cb 12bd b679 3a3d fab2 abbd
00000300: f19c 83bd e950 0ebc b99d 88bb 9096 f63c
00000310: e2e7 b83d fc07 a53d 9e76 963d 7080 7dbc
00000320: ec36 5e3d 7905 dfbc b158 b0bb 8c66 dd3c
00000330: 737a 2ebd 7055 46bd 8678 c03d 7bf6 bc3c
00000340: f393 a03d 29fc 80bd 25c4 a73c cb6b 18bd
00000350: 0d58 783d c55e 52bd 68a8 3eba 0f2b 68bd
00000360: 0c7d febc 948b f83c d365 3b3d d670 773d
00000370: 0910 c3bb 9c71 7b3d a60c bd3b 2aef 723d
00000380: 2bbd be3d e075 743d a363 88bd 70a8 1d3d
00000390: c55e da3c a1fe 993b d6b7 4abd 6fb3 03bd
000003a0: 2d43 bb3a 0400 083c 56c3 c83c c7cc 893d
000003b0: 9cbf ccbc c90c dabc 7f4e 41bd 0633 403d
000003c0: 8038 af3d 10a2 d0bc 0916 92bd 46aa 403d
000003d0: a743 873d 028d 79ba a8b2 6bbd bc36 08bc
000003e0: 1507 9fbd e60c 8ebd 5b5c 90bd 68c8 e1bc
000003f0: 4453 abbc c7e6 94bc e955 df3d 2ba3 33bd
-0.020237846 -0.034126647 -0.060781274 -0.0932717 -0.03985776 -0.037966534 0.02665506 0.010005842
0.021381328 -0.0037397046 -0.07931227 -0.04003986 0.057363406 0.05681123 0.0035951396 0.06862098
0.009064748 -0.031273127 -0.010767054 0.003542442 0.03344224 0.052393522 -0.034622546 -0.062081017
-0.01054098 0.0048825657 0.03445832 0.030257061 0.04494351 -0.01260475 -0.059587628 0.05301502
0.05342674 0.061621714 0.009461843 -0.07859847 0.034691878 -0.047148995 0.072259225 0.057737764
0.070717745 0.0036477041 0.02252069 -0.06243255 0.061100684 -0.07775017 -0.070551895 0.016195046
-0.043939892 0.060682107 -0.04126127 0.038529642 -0.08938666 -0.03956944 -0.0030666755 0.043818973
-0.004545496 0.020428292 0.02152294 -0.05581138 0.022699384 -0.0671807 0.08234855 0.05653572
0.019666968 0.058819354 -0.0017549645 0.048275284 0.059801668 -0.075768486 -0.08143746 -0.010974641
0.0836327 0.0065498557 -0.048523813 -0.08318493 0.043952603 0.038120266 0.07021831 -0.032329626
-0.044448342 -0.0028965464 0.04622333 -0.012068378 -0.07177141 0.061158378 -0.031368602 -0.051543396
0.03903162 0.065042645 -0.06477515 -0.06675498 0.018850781 0.040174145 -0.04071214 -0.06834235
0.0692471 -0.07611951 -0.09132708 -0.062606655 -0.056318242 0.04435584 -0.07959172 0.03183546
0.06397735 -0.06976808 -0.082129985 0.0077365614 0.047218915 -0.06582176 -0.061246578 -0.008687473
-0.015758613 0.015067917 0.029958522 -0.059201676 -0.06616056 -0.060725283 0.010982977 0.018978845
-0.042573787 -0.047529075 -0.047441043 -0.083961576 0.042718444 0.033867754 -0.0921573 -0.08862323
-0.01834891 0.02991395 0.07739921 0.07381809 -0.0394186 -0.03341936 0.0872254 0.02487882
0.061782617 0.040067364 -0.06748031 0.088995 0.028310843 -0.062133707 -0.043986242 -0.07912653
-0.058930982 0.040296298 -0.023528472 0.01243943 -0.07700604 -0.03146964 -0.0772656 -0.0035198955
-0.05222889 0.048872508 -0.0829152 -0.043236487 0.057504702 -0.051511392 0.03912756 -0.0015964551
0.0056380103 0.016283788 -0.014324124 0.02038841 -0.05966609 0.02187308 0.0628038 -0.040883407
0.08189955 -0.037557043 0.07918942 0.05417435 0.025327351 0.08470629 0.068710126 0.09979834
0.08153366 -0.0024862015 -0.06529766 -0.032997087 0.07345924 0.052156277 0.07969563 -0.0817474
0.07546199 -0.04116214 -0.028447019 -0.04311356 0.08824721 -0.035838816 0.04552623 -0.083837464
-0.064264186 -0.008686283 -0.0041691926 0.03010109 0.09028603 0.080581635 0.07346843 -0.015472516
0.054251596 -0.02722429 -0.0053816666 0.027026437 -0.042597245 -0.048421323 0.09397988 0.02306675
0.07840719 -0.06298096 0.020479271 -0.037212174 0.060630847 -0.05135991 -0.00072730193 -0.05668169
-0.031065486 0.030339994 0.045751404 0.060410343 -0.0059528393 0.061387643 0.00576933 0.059310116
0.09313425 0.059682727 -0.06659629 0.038490713 0.026656518 0.0046995436 -0.049491726 -0.032153543
0.0014286988 0.008300785 0.024507206 0.06728511 -0.02499371 -0.026617425 -0.047194 0.04692366
0.085556984 -0.025467902 -0.07133109 0.047037385 0.066047005 -0.0009519608 -0.057543427 -0.008313831
-0.07765023 -0.06936054 -0.070488654 -0.027561381 -0.020913728 -0.01817645 0.10905058 -0.04385678

4.bias f4 [128]
00000000: 883a 04bd 45d3 43bd 7fd7 93bc 9d98 803d
00000010: 39ce ebbc 0e11 38bb 92ec 7c3d 8374 6e3d
00000020: b394 593c 2593 a5bc df65 3e3d a404 9f3d
00000030: 5c15 b63c 6be6 79bd 25e6 a7bd f46a 493d
00000040: 1825 11bc 2338 1e3d a9e1 ca3d 45d2 df3c
00000050: 3173 aabd 2b0c 9d3d 7ab0 89bd 81d0 bc3d
00000060: 05b0 733d e2db a7bd 96a4 0e3c e7ab a0bc
00000070: e967 a43d dae7 7fbb 1c06 a1bd 1d57 62bc
00000080: 70a7 a2bd 030a 26bd 640e 6e3c 9cf9 9fbd
00000090: 489c b1bc 2d5b 103c a3e1 24bd 7fed 963d
000000a0: f1a9 d63c abda 943d 1038 0abd 0f2d c7bc
000000b0: d98f 5dbb 36cb 90bd 0b10 5bbd 75ec a93d
000000c0: a00e ae3d 1e2b 543d b477 863d d0b7 8b3d
000000d0: 8361 8cbd 91e6 cc3c 15e9 963d 280b b4ba
000000e0: 7441 65bd f727 22bd 2d9b a9bd ea06 71bd
000000f0: 1128 b3bc 6b64 e5bb d3ba c3bc eaf5 823d
00000100: 9ab4 883d 052e 40bd 80de 48bd 6c3a c33b
00000110: 27d3 77bc 1fa9 113d 7066 b1bd cae8 7dbc
00000120: e5ec 953d b069 5ebc eb45 27bc 2b5e 18bd
00000130: 410e a33d ed85 64bd 5feb 8fbd 41e7 9cbd
00000140: b376 893c 3089 00bd 7ed3 053d 43a0 9dbb
00000150: f29b 8eba 7ebb 21bd 2466 e83c d50b 42bd
00000160: b753 8b3b 9cd6 99b8 b43b 1ebc c7dc 5d3d
00000170: 23c8 aebd 37b1 24bd 270c c03c 92df 933c
00000180: 203e acbd 466c a63b 38d9 133c b6df 713d
00000190: 3cd1 a8bd 9bb1 023d 2d33 8b3d 1ea9 05bd
000001a0: fab7 a03d e475 75bd 139e 1abd 33bd babc
000001b0: 7528 76bc 2bcf 6abb 6d29 eabb 9016 9bbd
000001c0: 1eb6 e33b ad53 87bd 5282 9c3d b8f2 ccbc
000001d0: 6c31 e43c 1f25 e23c 6704 bd3c 6de5 8ebd
000001e0: 4be9 e4bb ee6b d638 1eee 4c3d 6f9c 09bd
000001f0: 167e 463d d623 a53c 0eb1 5bbd 7b73 8d3c
-0.032282382 -0.047808904 -0.018047092 0.06279109 -0.028784858 -0.0028086337 0.06174905 0.058216583
0.013280082 -0.020211766 0.04648387 0.07764557 0.022226982 -0.06101076 -0.081981935 0.049174264
-0.0088589415 0.038627755 0.099063225 0.027321944 -0.08322752 0.076683365 -0.06723113 0.092194565
0.059494037 -0.08196236 0.0087062325 -0.01961322 0.08027632 -0.0039048106 -0.078624934 -0.013814715
-0.079420924 -0.04053689 0.014529798 -0.07811281 -0.021680966 0.0088108005 -0.040254246 0.073695175
0.026204081 0.0726827 -0.03374487 -0.024313478 -0.0033807664 -0.070700094 -0.053482097 0.08297054
0.08498883 0.051798932 0.065658 0.06822169 -0.068545364 0.025012286 0.073686756 -0.0013736235
-0.055970624 -0.039588895 -0.082815506 -0.058844484 -0.021869691 -0.007000496 -0.023892796 0.06394561
0.06675072 -0.046918888 -0.049040318 0.005957892 -0.015126026 0.035561677 -0.086621165 -0.015497396
0.07320575 -0.013575003 -0.010209541 -0.03719918 0.07961703 -0.055791784 -0.07027315 -0.07661296
0.016780233 -0.031380832 0.032672398 -0.0048103645 -0.0010880216 -0.039485447 0.028369017 -0.047374565
0.004251923 -7.3355826e-05 -0.009657789 0.054165628 -0.08534267 -0.040208068 0.023443295 0.018050943
-0.08410287 0.005078825 0.009023957 0.059051238 -0.08243033 0.03190766 0.067968704 -0.032631986
0.07847591 -0.059926882 -0.037748408 -0.022795295 -0.015024294 -0.0035829048 -0.0071460516 -0.07572663
0.0069492003 -0.06607757 0.07642044 -0.025018081 0.027855597 0.027605591 0.023073388 -0.06977353
-0.0069858185 0.00010224419 0.050031774 -0.033596452 0.04846009 0.02015869 -0.05363565 0.01726698

6.weight f4 [2, 128]
00000000: f6ab 7f3d 689b 83bc 2cde 6abc c641 25bd
00000010: ea58 f23c 4401 433d f5e1 e1bc 4611 203a
00000020: 4883 98bd 4b4b a4bd c3bc 13bd 29ec c93b
00000030: 714b 093c 7135 b53c 783e 8abd 1082 12bd
00000040: e976 4dbd 3451 3ebc 5bdc adbd 4359 1a3d
00000050: 5a2e 64bd 2e63 a2bd 6b2c bb3c 3055 74bd
00000060: ae24 a4bd 9afa aabc da2c 4a3b 64a5 4ebb
00000070: ae4f cdbc abe8 da3c 8c0f 233d ff4a 49bd
00000080: 24a1 db3b e19a 853d 765c 8abd a886 8a3d
00000090: c4f3 3abc 812d 463c 16a4 a0bd 6ec1 aa3d
000000a0: 9ed8 133c 4f88 acbd 2212 6a3c 596e 86bd
000000b0: d446 30bc a6e0 34bd aa21 8ebd bc69 b53c
000000c0: 3002 92bd e797 dabb 1fb6 acbc cd82 86bb
000000d0: 5c9e 8d3d a4e6 53bc 20df 1abd 9751 c6bd
000000e0: adad 283d ac27 03bd 59b3 2d3d b264 983c
000000f0: b4c5 123c 544a 873d ccc4 673d e19b 123c
00000100: 2035 e43c 7b26 e43d 96b8 943d f422 b7bc
00000110: 3fb0 51bd e605 b03d fdd3 3abd 205c 8e3d
00000120: a274 773d 8b31 c53d 0d2c bebd c2d4 87bd
00000130: 620f 9a3d 8f79 e63b 1647 74bd e5ab 91bd
00000140: 28d3 e93a 91d4 79bd 564c 663d 1108 54bc
00000150: ed4b 523b 03bd 353d df97 3abd 7ada c73d
00000160: ec5f 8bbd f80c 9e3c 80de d2bb 87b1 983d
00000170: 5826 643d 4042 cdbc 62c8 81bd ea14 0b3d
00000180: 40f4 94bd b72e 46ba a99d 2d3d 1f61 6ebd
00000190: 350a 20bd 842b 02bd 8c42 06bd bdbd 6b3d
000001a0: 9a1b abbd 6a11 8c3c 1b08 93bd 114e c73d
000001b0: 3f5d a1bd 2fb3 1d3d fac6 8f3d 016b d3bd
000001c0: 98e1 da3c db36 92bd dbfa e13c 0e39 a63d
000001d0: d8ef 83bd bb29 863c 07b8 663d dc92 aa3b
000001e0: 9582 203d 02a2 3e3d 9459 c83c 1722 a83d
000001f0: 90df 75bd bec3 e73d af80 9e3c f5b4 c5bd
00000200: 3f08 9fbd 4d83 d2bc df68 73bd 09fc 843d
00000210: 743e db3d dadb 883d c430 85bd 4668 7cbd
00000220: a281 b2bd 9e01 82bd 311f a83d 1876 433d
00000230: cd26 8ebc 9864 5fbd dabe 87bc 6eef a93d
00000240: a063 12bd 1120 ad3d 8c7d a73d 30d2 8b3c
00000250: 0151 dabc dbda 28bd 7956 34bd 71f1 18bd
00000260: b3eb 513d 3957 263d f473 a33d 9336 53bd
00000270: fe51 b8bd a746 533a f2f4 953c ce21 7bbd
00000280: 65fa 4cbd 0069 a83c ec9e b2bd e31a 82bd
00000290: 116f 373c faeb 94bd f70f 113d 3fc1 573d
000002a0: 2ae7 ac3b 105e c83c 84ab 973d ba08 18bd
000002b0: fcdc 8d3d 743b 33bd 181c debc 6bb7 8b3d
000002c0: d871 71bc 3270 aabd fcd4 9d3d fd94 38bd
000002d0: 2282 73bd dfef 1a3a a8b0 2c3d b080 b0bd
000002e0: 5564 9bbc 5d42 413d 0769 963d 4f53 e63c
000002f0: 5f85 a1bc cdb4 a0bd 5050 79bc 5717 e3bc
00000300: b831 c43d e2c7 3fbc d0bf 96ba ed03 1b3d
00000310: 6162 44bd 11fa e73c e45e 4b3c 0601 5abd
00000320: 3070 a5bc 534b 9a3d 9b13 753d 16de 193d
00000330: af2a 2bbd f05c d93c 7bf2 ce3d efe3 d2bb
00000340: 1877 1fbd 541f 72bd adc1 3d3d 220e 823d
00000350: bb58 bebd 5829 4abd 77ee 6b3d 8e57 31bd
00000360: 693f b4bd b925 c5bd 04e4 cfbb 758e 543c
00000370: 4d72 4d3a ebc0 cdbd 104d 93bd d617 7d3d
00000380: 6038 70bb 4b8b 79bd d74f f0bc 0a39 7ebd
00000390: 8525 a43d fbb9 ba3d c6c1 87bd fbbd 4bbd
000003a0: cd05 a6bc 1ed6 9b3d 6680 ac3d 950b c2bd
000003b0: b081 83bd 7c25 67bd 4679 02bd 4278 46bc
000003c0: 04eb 833d 0106 503d 1665 813d 1eb5 1cbd
000003d0: f7d6 c1bd dfc5 a43d 82af 933b 00f8 dcbc
000003e0: 0e9f 903d 5738 e13c 489c 7f3d d51f 1f3d
000003f0: 2306 543d 7857 113d 8e76 97bb 030b 9a3d
0.062419854 -0.016065314 -0.014335196 -0.04034593 0.029583413 0.04760863 -0.027573565 0.00061060896
-0.07446915 -0.080221735 -0.03606869 0.0061621857 0.008379803 0.02212021 -0.06750196 -0.03576857
-0.05016223 -0.01161604 -0.08489295 0.037682783 -0.055708267 -0.07929073 0.022848329 -0.059651554
-0.080148086 -0.02087145 0.0030849488 -0.0031531686 -0.025062408 0.026722273 0.03980975 -0.049143787
0.006702559 0.065236814 -0.06755917 0.06763965 -0.011410657 0.01209581 -0.07843797 0.08337675
0.0090238135 -0.08424436 0.01428655 -0.06564016 -0.010759074 -0.044159554 -0.06940015 0.022145145
-0.071293235 -0.00667094 -0.021082936 -0.004104948 0.0691497 -0.012933407 -0.037810445 -0.09683531
0.041181255 -0.032020256 0.042407367 0.018602703 0.008958269 0.06605974 0.056584165 0.008948297
0.027857363 0.11140152 0.072617695 -0.022355534 -0.051193472 0.08594875 -0.045612324 0.06951165
0.060413964 0.0962859 -0.09285746 -0.06632377 0.07522465 0.007033534 -0.059638105 -0.071128644
0.0017839419 -0.060993735 0.056225143 -0.012941376 0.0032088712 0.04436971 -0.04555499 0.09758468
-0.06805405 0.019293293 -0.0064352155 0.07455736 0.05570063 -0.025056005 -0.06337048 0.033955492
-0.072731495 -0.00075600616 0.042386685 -0.05819809 -0.039072234 -0.03177978 -0.032778308 0.057553995
-0.08354874 0.017098147 -0.0717928 0.09731687 -0.078791134 0.03850096 0.07020374 -0.10323144
0.0267189 -0.07139369 0.027585438 0.08116351 -0.06442231 0.01637732 0.056327846 0.0052054953
0.039187033 0.04654122 0.024456777 0.08209627 -0.06002766 0.11316632 0.01934847 -0.096536554
-0.07765245 -0.025697375 -0.059426185 0.064933844 0.10705271 0.06682558 -0.06503442 -0.06162288
-0.08716132 -0.06347965 0.08209074 0.047720045 -0.017352486 -0.054539293 -0.016570497 0.08297621
-0.03573954 0.08453382 0.08178243 0.017067999 -0.026649954 -0.04122434 -0.04402778 -0.03733963
0.05125017 0.040610526 0.07981101 -0.051565718 -0.09000014 0.0008059539 0.018305276 -0.061311536
-0.050043482 0.02055788 -0.08721718 -0.063527845 0.011195914 -0.072715715 0.035415616 0.05267453
0.0052765803 0.024458915 0.07405761 -0.037117697 0.06926915 -0.04375787 -0.027113006 0.068220936
-0.014736615 -0.08322181 0.07706639 -0.04506396 -0.059450276 0.00059103774 0.04216066 -0.08618295
-0.01896874 0.04718243 0.07344251 0.028115897 -0.019716917 -0.07846985 -0.015216902 -0.02772109
0.095797956 -0.011705371 -0.0011501256 0.03784554 -0.047945384 0.028317483 0.01241276 -0.053223632
-0.020195097 0.07533898 0.05983315 0.037565313 -0.041788753 0.026533574 0.10104843 -0.006435863
-0.038931936 -0.059111908 0.04632728 0.06350352 -0.09294268 -0.049355835 0.057600465 -0.04329639
-0.08801157 -0.09626336 -0.0063443203 0.0129734175 0.00078371615 -0.10046562 -0.07192433 0.06179031
-0.0036654696 -0.060923856 -0.029334946 -0.062066115 0.08014969 0.09117504 -0.06628756 -0.049741726
-0.020266438 0.07609199 0.084229276 -0.09474865 -0.0642122 -0.056432232 -0.031853937 -0.012113633
0.0644131 0.050786976 0.06318109 -0.038258664 -0.094648294 0.080455534 0.004507006 -0.026973724
0.07061587 0.027492685 0.0624049 0.038848717 0.051763665 0.035483807 -0.004622287 0.075216316

6.bias f4 [2]
00000000: 4df1 06bd 4550 723d
-0.032944966 0.059158582
