checkpoints/wifi_IT_T_1.5.pth (torch, 137655 bytes, 8 tensors)

0.weight f4 [128, 2]
000000 31 18 49 3f 93 95 e3 3e 56 2a b4 be 99 61 25 bf
       0.7855254 0.44450054 -0.3518855 -0.6460205
000010 07 e9 90 be 9e fc f7 3e 8d 19 4d bf 5e b9 6c 3f
       -0.28302786 0.4843492 -0.8011711 0.9247035
000020 fc d3 33 3f 72 0c 3b 3f 0b 6f 34 bf 55 4a 33 bf
       0.7024534 0.73065865 -0.7048194 -0.70035297
000030 3f 10 a5 3e b2 ab c0 bd 1b 51 b1 3d ac a8 65 bf
       0.32238957 -0.09407748 0.08658048 -0.897105
000040 c2 bf 7a 3e ac 61 30 3f 3f 66 83 bf fc ef 5e bf
       0.24487212 0.68899035 -1.0265578 -0.8708494
000050 ed 52 ed bd 4e 05 b4 3e 35 ac ac be 8f e6 d0 3e
       -0.115880825 0.35160297 -0.33725134 0.40800902
000060 31 e4 fe 3e b9 65 f1 3d 6e f0 8e 3d 45 55 5d 3f
       0.4978347 0.1178698 0.06979452 0.86458236
000070 a5 72 6b 3d 75 c3 62 3e 9c 57 65 be 99 0c c7 be
       0.05748238 0.22144873 -0.22396702 -0.388768
000080 8c b2 83 bf ce da 3d bf 52 72 39 3f 17 46 fa 3e
       -1.0288863 -0.74161994 0.72440064 0.488816
000090 14 13 1c bf ff ed 0d 3f d1 af 7f 3e 49 ea e5 3d
       -0.6096661 0.5544128 0.24969412 0.11226327
0000a0 52 54 41 bf d6 9d d2 3e 29 56 ee bd 2a 0c 08 3c
       -0.7551929 0.41136044 -0.116375275 0.008303681
0000b0 5c d1 34 bf 1d e1 e2 be 34 6e 8b 3e 9e 6c f5 bc
       -0.7063196 -0.44312373 0.27232516 -0.02995902
0000c0 c6 1e 43 bf 6f a4 2c bf 21 a4 87 bf d0 54 4f be
       -0.7621883 -0.67438406 -1.0596963 -0.20247197
0000d0 26 15 dd be 76 2c c8 be 20 23 13 bf 21 ea 82 3e
       -0.43180197 -0.3909642 -0.5747547 0.2556925
0000e0 8a f9 8e 3e 9a 0b 16 3f c3 3a 81 3f f7 eb 01 bd
       0.27924758 0.5861145 1.0096058 -0.031719174
0000f0 34 42 fa be f1 95 11 bf 22 20 df be a4 97 40 be
       -0.48878634 -0.5686942 -0.43579203 -0.18807846
000100 94 06 60 3f 77 94 67 3f 0d b9 77 3f b9 6a ca 3c
       0.8751004 0.90460914 0.9676674 0.024709092
000110 42 37 de be 0e 66 39 bf 24 7a 38 bf 8d 48 01 3f
       -0.43401533 -0.7242135 -0.7206137 0.5050133
000120 b9 ad 09 bf 60 71 06 3f 49 fe 93 3e 0d 35 0a bf
       -0.53780705 0.52516747 0.28904942 -0.539872
000130 0c 6f 23 3e f2 0f 7e 3f b4 68 bc be d2 c2 02 bf
       0.1596033 0.9924308 -0.36798632 -0.5107852
000140 e8 56 04 bf cd 40 10 bf 99 cb 48 bd e0 f0 82 be
       -0.5169511 -0.5634888 -0.04902229 -0.25574398
000150 93 25 68 be ce 4b 49 3d 6d a0 06 bf 9d 2e 2e 3e
       -0.22670583 0.04914456 -0.5258854 0.17009969
000160 16 69 33 be a0 59 21 bf 27 4a dc be 83 93 13 bf
       -0.17520556 -0.6302738 -0.43025324 -0.5764696
000170 80 a3 30 3e 02 37 23 3f 29 77 ff 3e 9b bc ba 3d
       0.1724987 0.6375581 0.498956 0.09118005
000180 c9 3b 70 bd ad de 53 3f 55 65 26 bf 2e 29 00 bf
       -0.058650766 0.8276165 -0.6499837 -0.50062835
000190 1f bc b3 be a5 3f 64 bc 91 83 1d bf 71 e7 2b be
       -0.35104463 -0.01393119 -0.6152888 -0.16787507
0001a0 15 1f 61 be 36 b6 ab 3e c2 dc 27 3f 53 b1 e2 3e
       -0.21984513 0.33537453 0.65571225 0.44275913
0001b0 fd 11 88 be 0e b2 f0 3e ca f5 48 bf 80 d1 7b bd
       -0.26576224 0.47010845 -0.78500044 -0.06147909
0001c0 b8 00 39 3f 90 cb 4b 3d 88 ff cc 3e b8 0c 7b 3d
       0.7226672 0.04975468 0.40038705 0.061291426
0001d0 02 62 ba 3e e1 0b 6b 3f 87 5e b6 be 4a af 25 be
       0.364029 0.91815 -0.35618994 -0.16180149
0001e0 c8 91 3b 3f c2 a4 98 bd 22 32 e6 3e f0 9b 24 bf
       0.7326932 -0.074533 0.44960123 -0.6430044
0001f0 28 a6 f0 be 9f 73 68 be ca 76 85 be d0 0a 21 3f
       -0.47001767 -0.22700356 -0.2606719 0.62907124
000200 38 6e 1c 3f 06 25 e8 be 61 f8 43 bf 79 1a d6 3e
       0.6110568 -0.45340747 -0.7655087 0.41817072
000210 99 56 dc 3e c6 fa 09 bf 42 a8 9d 3e df ec 83 3e
       0.4303482 -0.53898275 0.30792433 0.25766656
000220 b3 fb b2 3d 56 f2 ba be ac 2c 35 bf 49 54 cb bc
       0.08739414 -0.36513013 -0.7077129 -0.024820464
000230 f8 2e 21 3f 47 ef 9e 3d 50 33 d8 bd 22 5f 9c 3e
       0.62962294 0.07760482 -0.10556662 0.3054133
000240 79 79 bf 3d 44 be ee 3c 7c 7e a6 bd 01 e4 58 bf
       0.09349341 0.02914346 -0.08129594 -0.84722906
000250 ac ea d3 3e b9 ac 2e 3f b4 d9 a0 bd c4 e6 92 3f
       0.41389978 0.68232304 -0.078540236 1.1476674
000260 39 fe 3c bd c4 3e 7a be 4f d9 e0 bd d3 c8 35 bf
       -0.046140883 -0.24438006 -0.10978948 -0.7100956
000270 82 85 3b be b8 46 3f bf 06 13 1f bf 83 80 67 3f
       -0.18312648 -0.74717283 -0.621384 0.9043047
000280 ad 4a 35 bc 27 c3 45 be f8 33 a9 3e 7f 4c 43 3f
       -0.011065167 -0.19312726 0.33047462 0.762886
000290 f9 63 9e be b2 01 f0 3e 6f ad 10 bf 0b 71 49 3f
       -0.30935648 0.46876293 -0.5651464 0.78688115
0002a0 91 32 8d 3e f0 5f 9a be 24 ea b3 3e d2 2b 80 3d
       0.27577642 -0.3015132 0.35139573 0.06258358
0002b0 82 7e bd be 01 c6 17 3e 49 2e 2a 3f 25 e8 3a bf
       -0.3701058 0.14821626 0.66476876 -0.73010474
0002c0 dc 89 50 3f 17 ee 19 be 99 c7 a3 be be ac 2b bf
       0.81460357 -0.1503223 -0.31988218 -0.6706046
0002d0 c8 f1 ff be 2d 7c 19 3f 98 73 43 bf 1e 10 2c 3f
       -0.49989152 0.599551 -0.7634826 0.6721209
0002e0 64 a7 4b 3f bb 01 08 3f 20 ea 32 3f 5d ae 38 bf
       0.7955229 0.5312764 0.69888496 -0.7214106
0002f0 1d 90 20 bf 00 1e 3a 3f 2b 70 a3 3e e1 fe 07 3f
       -0.627199 0.72702026 0.31921515 0.5312329
000300 e4 2e 9f be 75 99 3b bf 17 d1 9f 3d 79 d0 b0 3e
       -0.31090462 -0.7328103 0.078035526 0.34534052
000310 4f dc 1f 3f cf ed 34 be 61 e7 35 bf b2 54 33 be
       0.6244554 -0.17668842 -0.7105618 -0.17512777
000320 87 1e 08 3f cc e7 b0 be 1c 9c 2b 3f 2d 8a 35 bc
       0.5317158 -0.34551847 0.6703508 -0.011080307
000330 ef c5 dd bd f0 95 30 be ff 10 19 3f de a8 16 bf
       -0.108287685 -0.17244697 0.5979156 -0.5885142
000340 a7 f8 11 3e 95 4f 78 3f dc ef 30 3e 7a 74 aa 3e
       0.1425501 0.9699643 0.17278999 0.3329199
000350 71 40 2c 3f f1 03 7d 3f 01 65 c4 3d a6 94 21 3f
       0.6728583 0.9883414 0.095895775 0.63117445
000360 04 f3 2b bd 58 0e 68 be af ab 0c 3f ef f2 18 3f
       -0.041979805 -0.22661722 0.5494947 0.5974569
000370 36 47 b1 3e a6 e4 cd 3e 35 a0 6b 3e 6d 6b 30 bf
       0.34624642 0.40213507 0.23010333 -0.6891392
000380 56 56 fd bd 61 04 df bd fb db a3 be b0 75 2b 3f
       -0.12369983 -0.10889507 -0.3200377 0.6697645
000390 3d 76 f8 be 8f 8a 3d be 1b 7c 05 bf f8 46 a0 3e
       -0.4852771 -0.18509887 -0.52142495 0.31304145
0003a0 37 6f 1a 3d 24 93 1a bf f7 ee dc 3d 99 43 84 be
       0.03770372 -0.6038077 0.107877664 -0.25832823
0003b0 71 fc 29 3f 59 78 1a bf e1 71 f9 be 64 20 2a 3f
       0.6640082 -0.60339886 -0.48719695 0.66455674
0003c0 69 c7 41 3e fb 26 18 bf 47 fa 38 3f 5e 28 2c bf
       0.18923725 -0.5943448 0.7225689 -0.67249095
0003d0 b6 a3 fe bd 5b a0 30 3f 60 fb 2a 3f aa 1f a0 3d
       -0.12433569 0.68994683 0.6678982 0.078185394
0003e0 3f 8d ec 3e ba de 91 be 53 f3 33 bf 6d ee 65 3e
       0.46201512 -0.2849024 -0.7029316 0.22454233
0003f0 a7 54 8b bd 7c 75 96 3e 6e 79 03 3e 66 b6 2f bf
       -0.068032555 0.29386508 0.1283929 -0.6863769

0.bias f4 [128]
000000 93 1c 0a 3f e5 f3 a7 be 78 e2 f6 3e 4e 82 f0 bd
       0.5394985 -0.32803264 0.48219657 -0.11743604
000010 1f a8 89 bd 95 72 01 3f 4c bd 08 bf dc ef 10 3e
       -0.0672152 0.50565463 -0.53413844 0.14153999
000020 1b 23 3a 3e 9d 77 f8 3d 4a 1d 1e 3e de 2f 0d 3f
       0.18177454 0.121321894 0.1544086 0.55151165
000030 cb 3f ad bd b1 13 8c 3e 37 c7 07 bf 94 e8 b0 be
       -0.08459433 0.27358773 -0.5303835 -0.34552443
000040 c6 2c 17 3e 47 09 29 3f d5 37 01 3f a0 15 fb 3e
       0.14763173 0.6602978 0.5047582 0.49039936
000050 ef a6 18 3f 2f c5 f9 be 17 e2 1d 3e 2d 27 06 bf
       0.5962972 -0.48783252 0.15418278 -0.5240353
000060 d4 a9 23 3e 17 27 f1 3d 52 4f 8b be df c0 ad bd
       0.15982753 0.11775034 -0.27208954 -0.08484053
000070 e2 d5 21 be 5d 98 ee bd 72 f7 d1 bd db 86 00 bf
       -0.15804246 -0.11650155 -0.102522746 -0.50205773
000080 9b 23 39 be 1e 8b 1b 3d 19 5c ae 3c 37 43 a0 3e
       -0.18079989 0.03797447 0.02128415 0.3130128
000090 16 a5 c5 3e 05 7c bd bc 52 de cc bd b7 6f 0f bf
       0.38602513 -0.023130426 -0.10003342 -0.5602984
0000a0 ce 8c d6 be 53 2a 11 3e 90 52 88 be 4c d6 7b be
       -0.419043 0.14176302 -0.2662549 -0.24593467
0000b0 38 41 9a 3d a9 bd f5 3e 8b ab 80 3e cf d0 26 3f
       0.07531971 0.47996262 0.25130877 0.65162367
0000c0 f9 f5 d8 bd 93 2d 20 bf cd f6 13 bf 65 76 29 be
       -0.105937906 -0.6256954 -0.57798463 -0.1654907
0000d0 13 2c 8e 3d 07 4c 96 bd a8 41 27 3e b7 1d b7 3d
       0.06942 -0.0733872 0.1633364 0.089412145
0000e0 66 8a d0 be 7b ce f2 3e bf ae b0 bd d0 b8 eb 3e
       -0.4073059 0.47423157 -0.0862708 0.46039438
0000f0 87 02 93 3d c9 10 09 3f 2f 6d cc be 0d 9b 23 bb
       0.071782164 0.5354124 -0.3992705 -0.0024964244
000100 7a 05 cd 3d 4e fa 46 be 0f b4 32 3f 33 fb 23 3f
       0.1001081 -0.19431421 0.69806 0.64055175
000110 39 b4 08 bf 64 33 a1 3d 9a 71 76 3e 61 cc 06 3e
       -0.534 0.0787113 0.24066773 0.13163902
000120 c5 93 50 be ac da 11 3f 9f b2 b1 3e da c4 16 be
       -0.2036887 0.5697429 0.3470659 -0.1472353
000130 cd a3 e1 be 9f 0b 1e 3f 16 cd e1 bd 94 b2 02 3e
       -0.44070283 0.6173648 -0.11025445 0.12763435
000140 0b 3c c3 be d3 4e 06 3f 34 09 b6 3e 6c 95 0c 3e
       -0.38131747 0.52464026 0.35553896 0.13728875
000150 5e 91 09 bf e9 47 23 3f 03 58 08 bf bc f0 8a bb
       -0.5373744 0.637816 -0.53259295 -0.0042401236
000160 0a 70 cd be e6 d4 8c be 84 68 3a 3d 55 26 e5 3e
       -0.40124542 -0.2750618 0.04550983 0.44755808
000170 ba 4b 7a be 80 6c 15 3f 4b b5 1b be 3b 08 9d 3e
       -0.2444295 0.5836868 -0.15205877 0.30670342
000180 d3 6b 03 bf a1 a9 d9 be 55 75 e8 be 7e 02 2b bf
       -0.513364 -0.4251223 -0.45402017 -0.6680068
000190 69 98 06 be 70 37 61 3e 6e d5 fa 3e 08 0d 56 3e
       -0.13144077 0.21993804 0.4899096 0.20903409
0001a0 a3 7a f6 bc 43 69 0f bf af 10 b4 bd 78 fc 18 3f
       -0.030087775 -0.5601999 -0.08792245 0.59760237
0001b0 c1 e9 11 bf ad 73 34 3f 91 a5 5f 3e bf 7c 07 3e
       -0.56997305 0.7048901 0.21840502 0.1323118
0001c0 ca 39 d8 be 94 aa ca be 6d 06 0b 3f 4d de ff 3e
       -0.4223159 -0.39583266 0.5430668 0.4997429
0001d0 e8 64 b9 3d ef 48 e1 be 20 f5 e5 3e dc bc 08 3f
       0.090524495 -0.44000956 0.44913578 0.53413177
0001e0 6d d6 cf 3e fa f3 ce 3e ef 92 26 3e f1 04 ea 3e
       0.4059328 0.40420514 0.16266988 0.45706895
0001f0 25 a0 16 bf 6e ab f3 3e 01 19 c3 be e7 62 fa 3d
       -0.5883811 0.47591728 -0.38105014 0.122258954

2.weight f4 [128, 128]
000000 c7 a0 46 3d 53 19 5a be 70 cf cb bb a5 ba 1d be
       0.048493173 -0.21298723 -0.006219797 -0.1540323
000010 30 23 68 be 71 c8 fe 3c e3 77 51 bd 2e 5c 90 bd
       -0.22669673 0.031101437 -0.051139724 -0.07048832
000020 7e e5 67 bd 57 79 c5 3c 3d 3f 17 3d c3 4d 6e 3d
       -0.056615345 0.02410571 0.036925543 0.058179628
000030 b7 36 47 bd 3f f3 6d 3b 82 8b c6 bc 7a 0f 8e bd
       -0.048636165 0.0036308316 -0.024236444 -0.06936546
000040 99 db 72 3d 2a 33 0d 3c 2a 3b 4b 3d 03 96 94 3d
       0.059291456 0.0086181555 0.04961697 0.07255175
000050 a7 2c d4 3c 7d 49 43 bd 44 38 54 bd 8e 0d ce bc
       0.025900198 -0.047677506 -0.05181147 -0.025152948
000060 9d d7 05 3d 9c 44 83 bd b2 25 97 be 9a e6 90 be
       0.032676328 -0.064095706 -0.29520947 -0.28300935
000070 06 1c eb 38 53 10 c3 bc 07 7e 24 be 46 20 ef bc
       0.00011210893 -0.023811495 -0.160637 -0.029190194
000080 53 f3 ca bd 4e 54 f2 3c 33 f7 5b 3c 7c 3f 71 3d
       -0.09909692 0.029581215 0.013425636 0.058898434
000090 88 97 73 3d 7f 41 7a bb 57 e4 f8 bd 11 f9 d7 bd
       0.059470683 -0.0038186011 -0.12152927 -0.105455525
0000a0 e2 a7 a1 bd 7d 25 b7 3c 4f 74 6b 3d 5b 1b 60 bd
       -0.07893349 0.022356743 0.057483967 -0.05471359
0000b0 d8 9e 06 bd 8e 22 c9 bd 2b 6e 90 3b 9e 59 6a 3d
       -0.03286633 -0.09821044 0.0044076643 0.05721437
0000c0 61 dd 2d bd 8a 4c d5 bd 42 50 86 bd 7c c5 d5 bd
       -0.04244745 -0.10414989 -0.06558277 -0.10438058
0000d0 47 55 4e bb ea 62 6b be 53 26 d8 3d 96 62 37 3d
       -0.0031483935 -0.22986951 0.10554185 0.044771753
0000e0 b1 2f a3 37 14 65 cf bb b1 b2 6a bc 7c 8b 10 3d
       1.9453322e-05 -0.006329188 -0.01432483 0.035289273
0000f0 31 f9 de bd dc e9 ca bd 86 05 85 3c f8 84 28 bd
       -0.10887373 -0.099078864 0.016237985 -0.041142434
000100 13 7b 54 3d 82 a7 90 be 4c f1 61 3d 36 ed 8f 3d
       0.051875185 -0.28252798 0.05516176 0.07027666
000110 0e 47 f4 3c db d9 42 bc 9d 69 17 3d 58 70 dc bc
       0.029819038 -0.011892761 0.036965955 -0.026909038
000120 0a 24 31 bd 40 1a 19 3d 40 f0 8c 3c 37 62 0a 3e
       -0.04324726 0.03737855 0.017204404 0.13514028
000130 08 68 99 bc 8b d2 9e 3c 6c fd 56 bc 67 5a 32 3d
       -0.018726364 0.019387504 -0.013121944 0.043543246
000140 a4 c1 82 bd 00 44 a0 3d fa 08 e8 bc 7f 7c c6 bc
       -0.0638459 0.0782547 -0.028324593 -0.024229286
000150 1c 33 92 3d 31 a9 93 bc e0 de 59 3c 27 9b dc 3d
       0.071386546 -0.018025013 0.013297766 0.107717805
000160 e2 f5 93 bd ca c1 97 be 72 06 9b bc 8d 64 60 3d
       -0.07224633 -0.29640037 -0.018923972 0.054783393
000170 42 bb 56 bd d5 f6 a8 3c 06 e0 1d be c6 01 27 bd
       -0.052424677 0.020625511 -0.1541749 -0.040773176
000180 99 cc ea bd 3d b9 5d 3b b6 f5 84 3d ee 4a b7 3d
       -0.11464805 0.0033832334 0.06492178 0.089498386
000190 77 dc e9 be d1 4d e4 bd 86 3d 9c bd 89 98 7c bd
       -0.45676014 -0.11147655 -0.07628922 -0.061668906
0001a0 b1 ee 0c 3d ac 5b 84 3d 4a 0f e6 bd 51 65 83 bd
       0.03440732 0.064627975 -0.11233385 -0.06415809
0001b0 7b 5a 69 bd 76 16 a1 bd 55 28 31 bd f6 75 6f 3d
       -0.056971055 -0.07865612 -0.043251354 0.058462106
0001c0 60 8d d8 bc 0f e7 42 3e 53 cb 0d 3d 90 71 ef bb
       -0.0264346 0.19033454 0.034617733 -0.007307239
0001d0 26 ae ee bc 91 bd ae bc 5b 1f 38 3c a1 71 ab 3d
       -0.029135775 -0.021330627 0.0112379445 0.08371282
0001e0 c6 96 c5 bd 6d d4 43 bd 1c de 6e 3d a5 3f 0b 3d
       -0.096478984 -0.047810007 0.05831729 0.033996243
0001f0 de 33 21 bd ac fe 8b 3d 7a 70 2e bc 35 a4 66 3c
       -0.039356105 0.06835684 -0.010646934 0.014077236
000200 ff 5b 01 be 80 c8 7d bb ef 48 e7 bc a7 be 23 bd
       -0.1263275 -0.0038724244 -0.02823302 -0.039976742
000210 df 58 47 3d c7 fc 95 bd 95 50 25 3d 9a 65 0c bd
       0.04866874 -0.07323604 0.040360052 -0.034276582
000220 15 67 06 be d8 37 5f 3d a8 6c bf bd 90 38 e4 3b
       -0.1312526 0.054496616 -0.093468964 0.0069647506
000230 4f ae 61 bd c0 9f da bd a4 89 f5 bc 0b fa 95 3c
       -0.055097874 -0.10675001 -0.029972859 0.018307706
000240 e5 e5 5d 3d 9b 59 20 be 7c ca 2b bd 29 a2 71 bd
       0.054174323 -0.15659182 -0.04194115 -0.05899254
000250 9d 9f 2a bd 22 ff 52 bd 98 9f 90 bb 48 7c 8e 3d
       -0.041656125 -0.051512845 -0.0044135563 0.069572985
000260 b1 9f 73 3d f6 95 f9 bb 21 dd e2 bc 90 b5 39 3d
       0.059478465 -0.0076167537 -0.027693333 0.045339167
000270 9f 25 eb bb fb 6a 6a bd a7 cf 1c bd 11 d3 6b bd
       -0.0071761156 -0.05723093 -0.03828397 -0.057574335
000280 96 3b 8f 3d 52 b2 09 be a1 6c 78 3d ed 23 06 bd
       0.06993787 -0.1344693 0.06065047 -0.032749105
000290 3a fd 10 3d 23 71 6d 3d 27 30 76 3d d3 53 60 3a
       0.035397746 0.057969224 0.060104515 0.00085574127
0002a0 4d 01 36 3d bc b5 b4 bd ce 8c 37 bd 63 3c 3e 3c
       0.044434834 -0.088237256 -0.044812016 0.011611077
0002b0 b6 63 b2 3d 53 f7 1d 3d 36 2c 82 bd 43 9d 34 3c
       0.087104246 0.038565945 -0.06356089 0.011023822
0002c0 f5 bf 79 3d 8f 41 03 3b 14 e4 c2 bc d7 1d 32 3c
       0.06097408 0.002002809 -0.023790397 0.010871372
0002d0 bc 5c e8 bd dd be 5f bc 04 85 6c be c1 98 6f bc
       -0.11345813 -0.013656345 -0.23097616 -0.014623822
0002e0 cf a2 10 bd 1f ce 6f bd bb db d6 3c a5 94 81 3c
       -0.035311516 -0.05854618 0.026227823 0.01581795
0002f0 f1 e7 12 be 0f 6c 6e 3b 69 87 8d ba 72 f7 92 bc
       -0.14346291 0.0036380326 -0.0010797802 -0.017940257
000300 2c a8 3f be 69 30 76 bd 82 d4 a7 bd 50 0a 18 bc
       -0.18716496 -0.06010476 -0.081948295 -0.009279802
000310 11 09 0c 3d 2a ef 85 3d 53 45 28 be 65 a3 f6 bd
       0.034188334 0.065397575 -0.16432695 -0.12042884
000320 30 16 42 3d ec cb 91 3d 3e fa 66 bc 0f 8a 92 bd
       0.04738444 0.07118973 -0.014097748 -0.07155239
000330 38 6e 29 bc 32 9c ad 3c e6 51 4d bc 4d 18 16 be
       -0.01034122 0.021192644 -0.012531733 -0.14657708
000340 c3 1c 8e 3d 06 14 02 be 10 0f 8f bd 7d ec 58 3d
       0.069390796 -0.12702951 -0.06985295 0.052959908
000350 85 b3 9c 3c 87 c9 d5 bc 14 fa f1 bc 49 f8 65 bd
       0.01912857 -0.026097072 -0.029538192 -0.056144986
000360 6a ad 2a 3d 88 88 ac bd d5 f8 b7 bd aa f3 a7 bb
       0.041669287 -0.08424479 -0.08983008 -0.0051254826
000370 fe 8f 0d bd 41 84 c9 bd 9b 94 b4 bc 38 b2 8d be
       -0.03456115 -0.098396786 -0.022043517 -0.27675033
000380 7e dc f7 3c 90 cf 9f bc 17 13 8b 3d 03 17 77 3d
       0.030256506 -0.019508153 0.067907505 0.06032468
000390 7d fd 8d bd da 99 2f be 79 dd bc bd 74 86 12 bd
       -0.06933115 -0.17148533 -0.0922193 -0.035772756
0003a0 72 64 1e be 16 bd 53 bd 99 8e 1d 3d 0e 90 9e bd
       -0.15468004 -0.051694 0.03846607 -0.0774232
0003b0 10 93 90 bd 56 a4 7b bc ca e5 7e be be b3 9a 3c
       -0.070593 -0.015359005 -0.24892345 0.018884536
0003c0 fd e4 1f bc 03 86 84 3d cf 32 d3 ba a9 be b7 bd
       -0.009759185 0.06470873 -0.0016113165 -0.089719124
0003d0 6c 06 8b 3c db 51 45 bd ca d5 8f bd c2 1e 22 3d
       0.016970836 -0.048173767 -0.07023199 0.039580114
0003e0 57 9f 12 bb d4 02 22 bd 3e fa fe bd b4 ac 86 bd
       -0.0022372806 -0.03955348 -0.12450074 -0.06575909
0003f0 75 58 8a bd f2 76 88 bb 54 b8 ec 3a c2 5d 48 3d
       -0.06755153 -0.00416457 0.0018060305 0.04891754

2.bias f4 [128]
000000 0c fe c8 bc a8 20 c2 bc 4e ff 26 3d f4 0d 11 3d
       -0.024535201 -0.023697212 0.04077082 0.035413697
000010 95 87 b3 3d 8c 60 66 bd 86 57 ea bd 96 64 c8 bc
       0.087660946 -0.056244418 -0.11442475 -0.024462026
000020 38 c6 88 3d 50 e3 9a 3d 25 52 83 bd 41 a9 42 bd
       0.06678432 0.07562888 -0.06412152 -0.047524694
000030 58 58 95 bc 29 2f 2a 3d ac 46 c3 3d b2 0e 77 3c
       -0.018230602 0.04154888 0.09534964 0.015079187
000040 40 80 10 bd 05 a6 17 bd 35 3f b3 bd a3 58 a4 bc
       -0.03527856 -0.037023563 -0.0875229 -0.020061797
000050 6a 5b 06 3c c4 c2 13 3d 91 b4 61 bd 7b fa 13 3d
       0.008200506 0.036074415 -0.055103842 0.03612755
000060 0c 5a 8f 3d 3f b2 bd bc df a6 28 bc 43 a7 9b bc
       0.06999597 -0.023156283 -0.010293691 -0.019000655
000070 bc 5e 59 bd e6 7b a7 3d 79 a3 89 bd 50 08 06 3d
       -0.05306886 0.081779286 -0.06720633 0.03272277
000080 97 34 3b bd eb 92 a3 bd f5 f3 a2 bd fa a2 ed bd
       -0.04570445 -0.07987007 -0.07956687 -0.11603351
000090 5d a4 06 3c 7c 96 2a bd 22 91 ae 3c 2a 66 10 bc
       0.008217898 -0.04164742 0.02130944 -0.00881342
0000a0 80 99 ad bc e5 17 31 3c 92 34 fa 3b 6e c1 92 3c
       -0.021191359 0.01080892 0.0076356614 0.0179145
0000b0 5e 69 a7 3c 77 5e 85 3b 27 80 65 3b 57 a9 bc 3b
       0.020435985 0.004070099 0.0035019012 0.0057574916
0000c0 d2 e8 14 bd 76 21 5b 3c 35 5e 76 bd 2f 0d 68 3d
       -0.036354847 0.013374677 -0.060148437 0.056653198
0000d0 58 3f 81 bd bf c7 19 bd f9 78 e4 bc d2 56 17 3d
       -0.0631091 -0.03754401 -0.027889716 0.036948033
0000e0 0c 4a 94 3d eb ab 27 bd c9 b5 7c bd fa bb 87 bd
       0.07240686 -0.040935438 -0.0616968 -0.066276506
0000f0 ac f1 8f 3d e1 8b 9d 3d 8c f1 4d 3c ab 68 10 bd
       0.07028517 0.076926954 0.012569796 -0.03525607
000100 37 cf 88 bd 8f 08 3b 3d 7d 5c 2f bd 56 08 ab bb
       -0.06680148 0.04566246 -0.042812813 -0.0052194996
000110 47 ad 8a bd 68 97 83 bc 91 36 7a 3d 94 42 91 bd
       -0.06771331 -0.016063407 0.061087195 -0.07092777
000120 9a c0 53 bd 4d 5c bd 3c 43 99 99 bd c7 60 3c bd
       -0.05169735 0.023115302 -0.074999355 -0.04599073
000130 ce 90 0c 3d 27 ac ba bc b9 d7 b8 bc 48 f6 2a 3d
       0.034317784 -0.022787167 -0.022563802 0.04173878
000140 35 be c6 bc c3 5d ac 3c b3 0f 76 3d ee 55 f9 3c
       -0.02426062 0.021040803 0.060073566 0.030436482
000150 9c f8 04 3b 09 75 5f 3d d8 22 92 bd e4 46 da 3c
       0.0020289784 0.054554973 -0.07135552 0.026645131
000160 af 97 77 bd 0c 16 9d 3d 96 61 50 bd 6c f5 2e 3d
       -0.06044739 0.07670221 -0.050874315 0.04271452
000170 b8 86 de 3c 1a 5d b7 3d a4 ae 3b bc fc c8 35 bd
       0.027163848 0.089533046 -0.011455212 -0.044381127
000180 b1 10 92 3c dc f1 a5 3d 35 43 7a 3c 70 7d 32 b9
       0.017830225 0.08102772 0.0152748125 -0.00017022132
000190 5a a1 e9 bc eb bd 74 bd ab 12 9f bc 8d 3f 5a bd
       -0.028519321 -0.059751432 -0.019418081 -0.053283263
0001a0 e0 e5 4a bd 2b aa b2 3c 97 1f 79 bd e2 ae 5c 3d
       -0.049535632 0.021809658 -0.060821142 0.05387772
0001b0 d6 11 84 bd 4a c4 b0 3c 37 11 2b 3a a1 e7 5a 3d
       -0.064487144 0.021577973 0.00065256975 0.053443555
0001c0 eb 1b e6 bc ad d8 76 bd 2f 31 a6 bd 4e 4b 54 3d
       -0.028089484 -0.060265232 -0.0811485 0.05182963
0001d0 14 8b a3 bd 33 10 45 3d 66 de 84 3d 6d b9 8e 3c
       -0.079855114 0.048111152 0.06487732 0.017422402
0001e0 92 08 ec 3c 69 e4 1f bd ec 42 83 bd 95 39 1a bd
       0.02881268 -0.03903619 -0.06409249 -0.03765257
0001f0 44 b2 af 3d c8 4c 5d bd b1 d9 35 3d ec 85 c2 bd
       0.08578923 -0.054028302 0.04439706 -0.094982

4.weight f4 [128, 128]
000000 04 ae 1a bd f8 cb 53 bd 22 a3 a5 bc d1 be 38 bd
       -0.03776361 -0.05170819 -0.02021939 -0.04510385
000010 50 03 57 bd 2e 98 8a 3d 42 3c 99 3c f2 b4 67 bd
       -0.052493393 0.06767307 0.018705491 -0.056569047
000020 37 80 84 3d 31 25 91 3c 33 4a 30 bd ee a1 38 bd
       0.064697675 0.01771793 -0.043039512 -0.045076303
000030 b3 e4 cd 3c 17 3d 0b 3d ac c8 5f bd 34 19 33 3d
       0.025133466 0.033993807 -0.054634735 0.043725207
000040 3f a2 7e 3d 1a db 45 3d 7c b2 f6 3c 13 03 5e ba
       0.06216645 0.048304655 0.030114405 -0.0008469086
000050 db e6 ea bc 6b 2a 6d bd 79 8c d1 bc 99 5f 92 bd
       -0.028674534 -0.05790178 -0.025579678 -0.0714714
000060 5d 03 93 3d 35 a3 87 bd 38 f4 57 3d 49 0c 74 3d
       0.07178376 -0.06622926 0.05272314 0.05958203
000070 92 b6 fb bc 54 ae 90 bd a5 4f 49 3d a4 1c 8c bd
       -0.030726705 -0.070645005 0.04914822 -0.068414
000080 08 9a 88 bd ca 74 c8 3c d3 b8 ba 3c 36 b5 89 3d
       -0.06670004 0.024469752 0.02279321 0.06724016
000090 31 d8 5d 3c ed 84 23 bc 27 ca 9e bc 21 c3 38 bc
       0.013540314 -0.009980422 -0.019383503 -0.011276991
0000a0 91 3f 87 bc 9b b0 b8 bc 29 0f 3e bd 5b 51 3f 3d
       -0.016509803 -0.02254515 -0.046401177 0.046708446
0000b0 df 35 d1 bc b8 63 45 3d d7 c5 aa bb 4e 2c 83 3d
       -0.025538383 0.048190802 -0.0052115726 0.06404935
0000c0 f4 aa 9f 3b 13 75 81 bd d8 6a 2f 3d 21 bd 77 3d
       0.004872674 -0.06321158 0.042826504 0.0604831
0000d0 57 7d 1b 3d ae 1f 18 3b 18 73 a3 3b aa 8f 0e bc
       0.03796133 0.0023212242 0.0049880855 -0.008701244
0000e0 d4 af 00 bd b5 8d 6d bd 55 ce 7b 3d d5 f4 ae bc
       -0.031417683 -0.05799647 0.06147607 -0.02135698
0000f0 d2 8e 0b bd d2 7c 46 3d 60 d2 44 bd cc f7 be bc
       -0.03407175 0.04845888 -0.04805219 -0.023311518
000100 0c bf 34 bc 0c b5 53 bd 5c 1e 87 bd dd 33 ab 3c
       -0.011031877 -0.05168633 -0.065975875 0.020898754
000110 22 22 58 3d 2f 04 33 bc 10 eb 83 bc 83 e5 07 3d
       0.052766927 -0.01092629 -0.016103297 0.033177864
000120 0f 19 86 3b 8b ef 8a ba 19 a1 c0 bc 56 ed f8 bc
       0.0040923427 -0.0010599954 -0.023514317 -0.030386608
000130 8e 7d 33 bc e9 8a 85 bd 3e c2 90 3d c5 04 7a 3d
       -0.010955228 -0.06520636 0.07068299 0.061039705
000140 3f d1 93 bc 44 33 c6 3c 4f e3 23 bc 98 fd 16 bd
       -0.018044112 0.024194367 -0.010002925 -0.03686294
000150 f3 46 8a bd d6 59 05 bd b1 14 d6 bc c4 20 89 bd
       -0.06751814 -0.032556377 -0.026132913 -0.06695703
000160 ab be 42 bd 60 7c 3b bd b6 78 5c 3d 2f e0 8a bd
       -0.047545116 -0.04577291 0.053826056 -0.06781041
000170 2d 39 d9 bc ed 45 2f 3d 75 f8 06 3d d8 52 5f 3d
       -0.026516521 0.042791296 0.03295179 0.054522365
000180 5c d8 88 bd 88 ab 12 bd 01 f5 3d bd 99 aa d9 ba
       -0.06681892 -0.035808116 -0.046376232 -0.0016606628
000190 58 5f 9a 3b 7a a8 bb bb 26 66 9f bb 91 d2 82 bd
       0.004711073 -0.005726871 -0.004864472 -0.063878186
0001a0 fa fe 8e 3d 3a a6 50 bd 58 c8 69 3b 16 37 8b 3c
       0.06982227 -0.050939776 0.0035672393 0.01699404
0001b0 f9 88 c1 bc 9b df 71 3c a0 6d d6 bc 00 a6 0f bd
       -0.023624884 0.014762784 -0.02617532 -0.03507042
0001c0 93 29 16 bd 90 d5 3e 3c 03 50 7b bd 72 86 5a bd
       -0.036660742 0.011647597 -0.061355602 -0.053350873
0001d0 d9 86 28 3d bf ef 38 3c 41 18 0c 3d d1 62 76 3d
       0.041144226 0.011287629 0.034202818 0.060152832
0001e0 f9 04 c1 3a 2d 39 01 3d 1b 48 87 3d ab ca 84 3d
       0.0014726213 0.031548668 0.0660555 0.06483968
0001f0 06 90 b1 bb 30 de 56 bc bb e8 6e bd ee 91 a0 bc
       -0.0054187803 -0.013114497 -0.058327418 -0.019600835
000200 3f c7 c2 3d 14 96 8a 3d 47 7c 57 bf 12 d0 38 39
       0.095106594 0.067669064 -0.8417401 0.0001762512
000210 9e c8 82 3c 31 06 9d bd 61 a9 b9 bc bb 4b 64 bd
       0.015964802 -0.076671965 -0.022663774 -0.055736285
000220 2a ec ff 3c 0b 49 bb bc 9c eb 0b 3d 97 c3 4e 3d
       0.031240541 -0.022861978 0.03416024 0.050479498
000230 29 1a 30 3d f1 f1 42 3c b1 15 eb bf 4a 11 1f 3d
       0.0429937 0.011898504 -1.8365995 0.038834848
000240 95 f6 62 bc 97 48 32 bb 45 8e 88 bd b9 5d ef 3d
       -0.013852735 -0.0027203911 -0.06667761 0.11687798
000250 64 d1 55 3c 20 69 91 3b e0 f5 cc 3d 84 2e 74 3c
       0.013050411 0.0044375807 0.100078344 0.014903668
000260 e6 6b ef bd e9 4a 92 be 90 a5 4f bd 08 4f 0f 3d
       -0.11690502 -0.28572777 -0.050695002 0.03498748
000270 62 77 34 bd bf 59 b6 3b 65 7c bc 3d 72 b7 4e 3d
       -0.044059165 0.005564898 0.09203414 0.050467916
000280 19 91 6f 3d ae 3b 1a bd 28 49 96 bd 25 37 82 3d
       0.058487985 -0.03765457 -0.07338172 0.06358174
000290 a5 a8 c9 bd 13 d6 82 3d 7b 70 e8 3b f8 d3 bd 3d
       -0.098466195 0.06388488 0.007093487 0.092689455
0002a0 88 d4 dd bd 9e 0b 3a 3d 2e 63 36 bd 24 24 26 bd
       -0.10831553 0.045421235 -0.04452818 -0.04056181
0002b0 df 7e 24 bd 3f 7a a6 bd 21 2a 74 be 1c c1 d9 bc
       -0.040160056 -0.08128785 -0.23844196 -0.02658134
0002c0 6e ce 42 3d f3 83 d6 bd bb 94 dd bf 82 8e 66 3b
       0.047560148 -0.10474386 -1.7311014 0.0035180156
0002d0 29 08 03 3d 33 7a a3 be a2 b2 18 3b ac bc 27 3d
       0.031990204 -0.31929168 0.0023299833 0.040951416
0002e0 15 8d 30 3c fd fb 8f 3c 5c 94 a6 3d 58 df 19 3d
       0.010775824 0.017576212 0.08133766 0.037566513
0002f0 0b 40 b3 bf a9 d0 e0 3d 38 15 ee 3c 40 ac fc 3d
       -1.4003919 0.10977299 0.029062852 0.123375416
000300 5f ad df 3d db a6 ad bc e0 48 e2 3d 80 fc 71 bb
       0.1092174 -0.021197727 0.11049056 -0.0036924183
000310 c4 3f 84 3d f0 4f e2 bf 4d 54 1a bd c9 e8 35 3d
       0.06457475 -1.7680645 -0.03767805 0.044411454
000320 60 89 47 bd 97 c2 8d bd fb c6 33 bf 71 7c 97 3c
       -0.048714995 -0.06921881 -0.70225495 0.018491955
000330 cc b0 89 bd 5b 19 31 be 1f 79 07 3e 69 91 03 be
       -0.067231745 -0.17294829 0.13229798 -0.12848438
000340 c7 86 a8 bb fa f7 61 bd bb 43 ec bc 43 54 1e bc
       -0.00514302 -0.05516813 -0.02884089 -0.009663644
000350 2b 5d 07 3e 5e 47 b7 bc 4a d1 12 be f1 9b 00 3d
       0.13219135 -0.022372898 -0.1433765 0.031398717
000360 5b c5 2d 3d d6 a1 02 bd 16 3d 18 3d 03 dc 81 3d
       0.04242454 -0.03189262 0.03716763 0.06340792
000370 e5 63 e5 3d f2 0a 78 3d db 23 23 3d a9 49 c8 3d
       0.11200694 0.060557313 0.039829116 0.097796746
000380 cf 66 63 3d f1 08 d8 bc 7f 7d b4 bd e1 0a 89 bb
       0.055517968 -0.026371451 -0.08812999 -0.004182205
000390 ab 43 6d 3c e4 88 17 3d 2e fc 5b 3d 09 ff 7f 3d
       0.014481465 0.036995783 0.053707294 0.06249908
0003a0 5d 85 b9 3d c2 c2 6b bd c2 cd 63 3c 77 d5 41 be
       0.0905864 -0.057558782 0.013904037 -0.18929087
0003b0 2a 31 5e 3c 17 43 70 3d f6 da 54 bd f7 b1 c7 bd
       0.013561526 0.05865773 -0.05196663 -0.09750741
0003c0 d6 5e 74 bd 23 69 72 bc 3d ed 45 bd de a3 cc 3d
       -0.059660755 -0.014795574 -0.04832195 0.09992193
0003d0 74 fa c0 3c ab be 07 bf 5d 07 8d bd 5c 6a de 3d
       0.023556925 -0.5302531 -0.0688617 0.1086013
0003e0 41 41 4c 3c c8 43 53 bf 28 e8 98 bd b5 a5 25 be
       0.01246673 -0.825253 -0.07466155 -0.16176493
0003f0 cc 5b 2e 3d ea d3 0e bf c2 7c 14 3d 76 81 28 3d
       0.042568013 -0.55792105 0.03625179 0.04113909

4.bias f4 [128]
000000 21 cf 7a bc 8f e4 8b 3c 5b ad b7 bc cc 97 90 bc
       -0.015308172 0.017076759 -0.02242153 -0.017650507
000010 73 cb be bc 29 0c a9 3d 54 1d 2b 3c 1c 82 47 3d
       -0.023290372 0.082542725 0.010444004 0.048708066
000020 13 f9 9e bd eb b2 b0 3c ee 8c 91 bd 1f 2e b7 3c
       -0.07762351 0.02156969 -0.07106958 0.02236086
000030 a6 12 51 bd 34 b4 c7 3d bf 58 df 3c ea dd 12 3d
       -0.051043175 0.09751168 0.027263997 0.035856165
000040 ee cc 76 3d 23 16 a1 3d c5 38 6d bd 89 13 bf 3d
       0.06025403 0.0786555 -0.057915468 0.09329898
000050 46 ae 0a bd 8a 1f 26 3d 70 01 06 bc 73 b1 ca 3d
       -0.033857606 0.04055742 -0.008179054 0.09897127
000060 81 fe ff bc a9 9d 7c bd 15 a3 11 bd 89 c3 73 b9
       -0.031249287 -0.061673794 -0.035555918 -0.00023247128
000070 31 ec 90 bd 7e 6d d6 ba 39 4e a6 3c 23 14 73 bd
       -0.070763 -0.0016359536 0.020300971 -0.059345376
000080 10 0d 80 bd 81 be 29 3d 7c 5e 07 3d 43 c9 a3 3d
       -0.062524915 0.041441444 0.03304909 0.07997372
000090 d2 01 2a 3d 25 52 94 3d e9 29 8b bd 7c 4b 7e 3d
       0.041505642 0.0724223 -0.06795103 0.062083706
0000a0 c1 f7 81 bd 56 dc 7a 3c 68 ff 6b 3d 87 97 bc bd
       -0.063460834 0.015311321 0.05761662 -0.09208589
0000b0 be 70 95 bc 2a ef bb 3c 05 82 94 3d 50 0f db ba
       -0.018242236 0.02294119 0.07251362 -0.0016712938
0000c0 6a ed 73 3d d3 45 98 3c 5a bf bc 3c 35 84 b2 3d
       0.059552588 0.018587982 0.023040462 0.08716623
0000d0 1b f5 8a bd 64 b9 5a bd b7 9f 00 3d 2d 41 89 bd
       -0.067850314 -0.05339946 0.031402316 -0.067018844
0000e0 c6 e8 57 3c 32 ab 81 3d 4b 8e a1 bd 62 8c 55 3d
       0.013178056 0.06331481 -0.07888468 0.052135833
0000f0 54 bd f3 3c 27 f8 9a 3d 1e 9a 3a bd db e0 ad 3d
       0.029753365 0.075668626 -0.045557134 0.084901534
000100 93 74 ec bd 92 5b 5d bd 0b 7e 90 bd db ff 80 bd
       -0.11545672 -0.054042406 -0.07055291 -0.062988006
000110 2f 8a 83 3d 87 bc ab 3d 05 af 77 bd 61 d7 0b bd
       0.06422841 0.08385568 -0.060469646 -0.03414095
000120 11 45 e0 bb 2f ae c5 bc 97 44 3d bd 33 a9 1e 3d
       -0.006844171 -0.024130909 -0.04620799 0.03873558
000130 53 3f 8f 3d fd 3c ef bc 2d 51 32 bc 82 a7 4a bc
       0.069945 -0.029203886 -0.010883612 -0.012369039
000140 2b 7e 9a 3d 2b 40 52 3c 4f 78 26 bd 9e 8f 0b 3d
       0.07543596 0.012832682 -0.04064208 0.03407251
000150 98 d6 82 bc 70 02 8d bd 62 48 df 3c 41 c8 ba bd
       -0.015971467 -0.068852305 0.027256195 -0.09120227
000160 16 34 2a 3d c6 76 62 3b 6e a4 f9 bc e3 d7 36 bd
       0.04155358 0.0034555658 -0.030473914 -0.04463948
000170 4d a2 74 3d e2 e3 9c bd 0e 12 f6 bb 57 ac 67 bd
       0.059725095 -0.07660653 -0.0075094765 -0.05656084
000180 44 06 31 bd 9c db 61 3d 4c 9a d9 bd 56 06 07 bc
       -0.043218866 0.055141076 -0.10625133 -0.008241257
000190 e0 91 b5 3d 58 3e 9e 3d 8c 1d 10 3d 90 97 49 bd
       0.08865714 0.07726735 0.035184428 -0.049216807
0001a0 18 2f 73 bd ed 6d b8 3b 7b d2 0e bd bb 92 a1 bc
       -0.059371084 0.0056283385 -0.0348687 -0.019723287
0001b0 6f fe 65 bc b2 23 cc bd b7 71 00 3c 5e 94 12 3d
       -0.0140377125 -0.09967746 0.007839612 0.035786025
0001c0 50 08 5c bd d6 a3 7a bd 7f 5e 46 bd fe 4a 69 3c
       -0.053718865 -0.061191402 -0.048429962 0.014239071
0001d0 a1 23 4c bd 33 02 1c bd 86 49 28 bd 13 0a bb bc
       -0.049838666 -0.038088035 -0.041085742 -0.022831952
0001e0 3d e8 fb 3c b8 30 32 bd 43 0b 6f bd 9e af 8d bd
       0.030750388 -0.043503493 -0.05836035 -0.06918262
0001f0 6c 78 68 bb 2d f6 83 3d 0a dc 72 3d 6c 24 44 bd
       -0.0035472168 0.06443439 0.059291877 -0.047886297

6.weight f4 [2, 128]
000000 45 27 6e bc 89 f3 48 be 24 9f df bb bc 22 5d 3d
       -0.01453573 -0.19624151 -0.006824391 0.053988203
000010 55 74 ed 3d e8 61 63 bd e6 73 0b bc a8 2d ce 3d
       0.11594454 -0.055513293 -0.008511519 0.10067302
000020 92 d6 8e be 56 11 e0 3d 05 00 92 bc e7 af 84 3d
       -0.2789808 0.109408066 -0.017822275 0.06478863
000030 f1 e3 42 3e d7 3c 17 be ad 07 ef 3d 02 ea 93 3d
       0.19032265 -0.14769302 0.11671386 0.07222368
000040 fc cd 20 3d f9 fd bd 3d 91 85 e8 bc cf d9 c7 3d
       0.039258942 0.09276957 -0.028384002 0.097583406
000050 96 e6 a1 3d 81 e9 38 be 28 2f 9a 3c f1 62 3a 3e
       0.07905309 -0.18057825 0.018821314 0.18201806
000060 46 72 0f 3d bf 61 01 be 2d 8d 77 bd dd 39 96 3d
       0.03502109 -0.12634943 -0.06043737 0.07335255
000070 b5 23 56 3e f2 8c f3 3d 24 35 45 3d 60 9d bd bd
       0.20912059 0.118921176 0.048146382 -0.092585325
000080 b0 21 6d be a0 00 57 bf 10 a2 4d be 97 d4 67 3d
       -0.23157382 -0.8398533 -0.20081353 0.056599226
000090 62 df 5d be 53 d0 2d 3e 98 37 24 3d b5 b1 16 3e
       -0.21667245 0.16974 0.04009208 0.14716227
0000a0 f0 c5 20 3d 9d 03 8a bd 28 8a d3 3d 3d c0 66 be
       0.039251268 -0.067389704 0.103290856 -0.2253427
0000b0 42 6a 26 bd 07 b3 4e be 56 b8 af 3d 21 4f c7 3c
       -0.04062868 -0.20185481 0.08580081 0.024329724
0000c0 c1 21 e5 3d 4f 6d d2 3d 49 6a 3d be 85 21 a4 3d
       0.11188079 0.10274755 -0.18497576 0.08014206
0000d0 a0 63 62 bd 8d 5c c7 bd 03 e9 06 3e 22 a4 be 3d
       -0.05527079 -0.097344495 0.13174824 0.093086496
0000e0 66 a9 89 be 52 4f b6 3d 1e 9a 49 3d 4a 6b 15 3e
       -0.26887053 0.08901848 0.049219243 0.14591709
0000f0 2c 35 73 3d fb 08 ae 3d d8 2f 7a be ee e1 8f bd
       0.05937688 0.08497807 -0.24432313 -0.070255145
000100 62 ae a5 be 6f 08 7a 3d 27 ea cd 3d da 61 94 3b
       -0.32359606 0.0610432 0.10054427 0.0045282664
000110 2d ef 8f be 1c 8d 8c 3d 6d 48 e4 bd 1f cd a5 3b
       -0.28112164 0.06862852 -0.111466266 0.0050598527
000120 f4 f5 66 be 15 36 fa 3e fa 72 9f bc e6 76 f3 bc
       -0.22554761 0.48869386 -0.019464005 -0.029719781
000130 4a 6d b0 3d 7c 02 bc 3b 0b 1e f2 3d b6 b9 5e bd
       0.08614595 0.005737601 0.118221365 -0.054376327
000140 2f 4a 17 3e 63 12 bf 3d 49 8e 46 bc ce f3 eb bd
       0.14774393 0.09329679 -0.012118884 -0.115211114
000150 d1 f4 d1 3c 66 d5 8b 3c df e2 c2 3d 51 7c 51 be
       0.025629433 0.01706953 0.095159285 -0.20457579
000160 4d 2f 73 be df 2a c1 bc 81 60 49 bd 07 0c db bd
       -0.23748513 -0.023580013 -0.0491643 -0.106956534
000170 19 64 d0 3d 7e f6 65 3d 4b 8b c6 bb c8 2b 80 bd
       0.10175342 0.056143276 -0.0060590855 -0.062583506
000180 2e 04 36 3d fe d6 01 be b2 f3 8b 3e 3d 5e 5b be
       0.04443758 -0.1267967 0.27334362 -0.21422668
000190 e3 f1 b1 3d da 58 df 3d e4 24 1e be 9b 90 05 3e
       0.08688714 0.10905619 -0.1544376 0.13043444
0001a0 0d cb bf 3c 5b ad 1c be 47 cc db bc 84 48 bf 3a
       0.023412252 -0.15300505 -0.026830805 0.0014593755
0001b0 82 89 86 3d 2d f3 8d be 60 8a 26 be 44 3d 1f 3e
       0.06569196 -0.2772459 -0.16263723 0.15550715
0001c0 70 11 fb 3d ab 5d 50 3d e8 24 87 3d 54 5b 6c be
       0.12259185 0.05087058 0.06598836 -0.23081714
0001d0 2b 8c f2 bd 84 b0 35 3e d5 33 b9 bc be 24 ac 3d
       -0.11843141 0.17743117 -0.022607723 0.084054455
0001e0 3f 8d 41 bd f6 35 ed bd 5e 4d 52 be 6e 87 0e 3e
       -0.047253843 -0.11582558 -0.20537326 0.1391885
0001f0 c9 2a b3 3c a3 32 26 3e 77 5b 31 bd 07 19 7f bc
       0.021870987 0.16230254 -0.04330012 -0.015569932
000200 47 78 94 bc 6e 4e 5a 3d 49 c9 0a 3d bf db 28 bd
       -0.018123759 0.053297453 0.033883367 -0.04122519
000210 eb 7c 00 3e 91 e4 1b 3e 33 31 0a 3e 78 2e ed 3d
       0.12547652 0.1522391 0.1349533 0.11581129
000220 df fc 45 bd 35 53 66 3d 22 e8 09 be 3f 03 7d bc
       -0.04833686 0.056231696 -0.13467458 -0.015442668
000230 e8 e3 d7 3c b0 b8 b2 3d 0e 99 f8 3d d7 bc 22 bc
       0.026353791 0.087266326 0.12138568 -0.009932718
000240 52 58 2a 3e ec 59 88 3d fb 1e 77 3d cc 10 80 be
       0.16635254 0.06657776 0.06033228 -0.25012815
000250 e4 8d 91 3c c1 3a 4a be b2 d2 3b 3e 9b 01 37 bd
       0.017767854 -0.19748975 0.18342093 -0.044679265
000260 3c ef 8e bc 92 bc 6a 3e dc 07 3e be 4d 16 52 3d
       -0.01744806 0.22923496 -0.18557686 0.0512908
000270 6c db 8d be 75 1f 3c 3d 33 14 01 bc 32 af 8e bd
       -0.27706468 0.045928437 -0.007878351 -0.069670096
000280 19 84 46 be 5c 74 2a be 82 b5 37 be 45 13 ea 3d
       -0.19386329 -0.1664595 -0.17940333 0.114294566
000290 d1 fc 4c be 84 8f 2f be 0f 8b 0e 3d 23 53 e5 bd
       -0.20018317 -0.1714459 0.034800585 -0.11197498
0002a0 68 26 90 3d 12 39 d9 3c f8 6f e2 3d 50 0c 76 be
       0.070385754 0.026516471 0.110565126 -0.24028134
0002b0 52 6a 83 3c 05 67 13 be a0 75 fa bd 61 3d c4 be
       0.016041908 -0.14394768 -0.122294664 -0.38328078
0002c0 0d c8 e9 bd 4b 87 9e bd 90 54 46 bd 2e ba 13 3e
       -0.1141511 -0.07740649 -0.04842049 0.1442649
0002d0 85 95 e7 3d 7e 0f 8a 3d ea 69 fa bd 23 7b 5f 3d
       0.113078155 0.06741236 -0.12227233 0.05456079
0002e0 0e ed 3d 3d 84 aa a4 b9 be 45 5d 3d 8d f7 13 bd
       0.04636865 -0.00031407562 0.05402159 -0.036124755
0002f0 3e 28 b2 3d eb 52 57 bd ad f3 54 be f4 06 7b be
       0.08699082 -0.05256931 -0.2079608 -0.24514371
000300 55 15 1d bd 0d 1a fd 3d 96 ca 45 3d 80 2e 4b 3e
       -0.038350422 0.123584844 0.048288904 0.19841957
000310 73 ea 35 be 0e 50 25 3e d1 df 9a 3c f8 2d fb bd
       -0.17765217 0.1614382 0.018905552 -0.12264627
000320 3f 23 19 be 5a aa c4 be fe f6 bb 3c 6b 07 90 bd
       -0.14954852 -0.38411218 0.022944923 -0.07032665
000330 21 d2 ab 3d 73 65 32 be 37 4d c8 3d 8d 2d ea 3c
       0.08389688 -0.17421512 0.097803526 0.028586173
000340 6e 1f 01 be b3 ac e7 3d 71 c0 7e 3c 67 8e 21 3e
       -0.12609646 0.11312237 0.015548811 0.15776978
000350 0b c6 76 3d 62 ee 95 3d 2d 60 04 3e 83 ec fc bd
       0.060247462 0.073208585 0.12927313 -0.123497985
000360 e1 50 52 be 15 d7 83 be 89 d7 52 bd 2d 9e 5b 3e
       -0.20538665 -0.25750032 -0.05147508 0.21447058
000370 74 e8 fa 3c 7c 45 04 3e 55 a1 37 bd 48 64 b7 bb
       0.03062842 0.12917131 -0.044831593 -0.0055966713
000380 47 0e 78 bd f2 40 27 bd 99 8b 26 3e 46 34 a4 3d
       -0.06056049 -0.04083342 0.1626419 0.08017783
000390 5a 79 d3 3d f0 88 86 3c 79 d0 81 3e 79 f5 32 3e
       0.1032588 0.016422719 0.25354365 0.17476453
0003a0 df 8f 49 bc d3 dc 0f be c7 40 11 bc fa 7b 69 3d
       -0.012302368 -0.14049082 -0.008865542 0.057003
0003b0 7d 2a e3 3b 06 52 d4 3e 9f ea ec bd c2 30 97 3d
       0.006932555 0.4146883 -0.11568188 0.07382347
0003c0 0a 0e 04 be df a1 8e bd 4b 14 02 bd cc 4e 41 be
       -0.1289598 -0.06964468 -0.031757634 -0.18877715
0003d0 04 27 1d 3e e7 65 90 bd 4b dd 60 3d 57 f5 27 3e
       0.15346915 -0.07050686 0.05489854 0.16402183
0003e0 69 85 43 bd 0f ba 0c be ae c8 56 3c 1d 1a 07 3e
       -0.04773465 -0.1374285 0.013109369 0.13193555
0003f0 5e 08 24 be 10 ac dd bd 7e ed 0e 3e 9f 6d 17 3c
       -0.16018817 -0.10823834 0.13957784 0.009242444

6.bias f4 [2]
000000 f5 09 3d bd f6 9a 87 3c
       -0.046152074 0.016553383
