checkpoints/wifi_IT_T_3.0.pth (torch, 137591 bytes, 8 tensors)

0.weight f4 [128, 2]
0.37372535 -0.56343 0.22806223 -0.67417574 0.32757756 0.4732417 0.6004315 0.707396
-0.43162474 0.19366197 0.44167072 0.00092959165 -0.7159719 0.12850368 0.21308461 -0.02859313
-0.045215987 0.6090426 0.5629199 0.096468665 0.4498336 -0.39354533 0.16312577 0.61827016
0.26733544 -0.48218545 -0.5898107 -0.38067675 -0.16819568 0.7707189 -0.09999591 0.43283892
-0.73952085 0.69981444 0.006739961 0.32521442 0.5236126 -0.41441917 0.43347475 -0.54154146
-0.6959761 -0.7116751 0.58970046 0.78596985 0.3617393 -0.037180543 0.4394562 -0.8416466
0.27846113 -0.026329719 -0.48303208 0.7737969 0.6665924 -0.660447 -0.35223952 0.011523738
-0.82002544 0.39028907 0.08890361 -0.31406784 0.15906495 -0.16285637 0.25657153 0.2191554
-0.64689726 -0.59400505 0.25720653 -0.4030156 -0.11258797 0.15337178 0.6410364 -0.46856946
-0.027043743 -0.43992335 0.5852226 -0.7337961 -0.2530437 0.026242936 -0.0720892 -0.2818485
-0.6323587 0.34128717 -0.5371392 0.102316484 -0.16174231 -0.5350767 -0.3661678 -0.3736459
-0.7703653 0.7939063 -0.19263326 -0.34884396 -0.31820557 0.5860671 0.20654662 0.81080556
0.7884989 -0.42578918 -0.40040368 0.66691864 0.05769989 0.44667372 -0.68836206 -0.6075168
-0.63727695 -0.6420116 -0.0038066718 -0.19153196 0.6321385 0.10575004 -0.42859155 -0.6448998
0.50729275 0.11329601 -0.5910827 0.66517144 0.7328862 -0.3389313 0.15333968 -0.06885224
0.48156658 0.3728436 0.27353355 0.5146295 0.04503585 -0.7719652 -0.08906027 -0.64850324
0.7342567 0.50922173 -0.34068683 -0.73480886 0.4904954 0.9345838 0.04595366 -0.032337446
0.14427519 -0.07829806 -0.32480186 -0.64942956 0.0686845 0.36202163 -0.112277076 0.15794958
-0.120754234 0.32940573 -0.5295759 0.8998769 -0.100867696 0.4442373 -0.6987243 -0.28748563
-0.0351446 0.19605078 0.035700276 0.5752362 0.62912446 -0.6209536 -0.118849635 0.36985314
0.33206195 -0.61122835 0.67724586 -0.13580158 0.30543882 -0.08655164 -0.07823659 -0.7696032
-0.63477033 -0.34572724 -0.64133346 -0.06561821 0.24598503 -0.0966736 0.16712959 0.19288605
0.09548264 0.33632502 0.6535114 -0.4825438 -0.5420757 0.27777925 -0.5887769 -0.00246289
-0.16298263 -0.16971797 0.24525574 -0.08360784 -0.23823515 -0.041049503 0.37894037 -0.35562888
-0.59066975 0.7043493 0.09992356 -0.5598743 -0.5172315 0.5404802 -0.31853634 0.07586127
-0.70661205 -0.16531286 -0.71549726 -0.2307867 -0.14278221 0.25144175 0.57246494 0.055934057
0.26680988 0.28940687 0.51698816 0.23738389 -0.43122625 -0.014500372 -0.6792156 0.46191314
0.59421605 -0.22823842 -0.092063196 -0.31108558 -0.5998604 0.87954146 0.31999224 0.51314104
-0.29319718 -0.19526155 -0.07902731 -0.2563767 0.0781573 -0.18699642 -0.26625365 -0.23257104
0.7417761 -0.34552464 0.18341738 -0.20519398 0.7058956 -0.4758997 0.02109069 0.65883845
-0.65450764 0.45573986 0.18392761 -0.22574699 -0.1128097 0.56740606 0.8321755 0.8066288
0.20905237 0.080978334 -0.017911537 -0.44327122 -0.18462284 0.072239384 -0.8681675 -0.2332625
00000000: ee58 bf3e f33c 10bf 2589 693e c896 2cbf
00000010: 3fb8 a73e bc4c f23e e1b5 193f e717 353f
00000020: ebfd dcbe 534f 463e aa22 e23e d7af 733a
00000030: ef49 37bf 7896 033e da32 5a3e 243c eabc
00000040: 6634 39bd 37ea 1b3f 851b 103f 5d91 c53d
00000050: 9750 e63e c67e c9be 710a 273e f446 1e3f
00000060: 31e0 883e 03e1 f6be d6fd 16bf 10e8 c2be
00000070: 7d3b 2cbe d54d 453f a8ca ccbd 109d dd3e
00000080: 3d51 3dbf 0a27 333f e4da dc3b 8182 a63e
00000090: 7a0b 063f c02e d4be 67f0 dd3e 76a2 0abf
000000a0: 7d2b 32bf 5730 36bf 9cf6 163f 5235 493f
000000b0: e535 b93e a04a 18bd 6700 e13e 2776 57bf
000000c0: 7592 8e3e 6cb1 d7bc fb4f f7be 8e17 463f
000000d0: cda5 2a3f 0e13 29bf bd58 b4be 0fce 3c3c
000000e0: 30ed 51bf f8d3 c73e 1913 b63d 80cd a0be
000000f0: ece1 223e d2c3 26be 585d 833e 466a 603e
00000100: 0f9b 25bf b710 18bf 93b0 833e 1058 cebe
00000110: 8694 e6bd 7e0d 1d3e f61a 243f 56e8 efbe
00000120: d78a ddbc a23d e1be 26d1 153f 10da 3bbf
00000130: f28e 81be 6dfb d63c 81a3 93bd 724e 90be
00000140: 42e2 21bf 31bd ae3e f481 09bf 4e8b d13d
00000150: c79f 25be c9fa 08bf 597a bbbe 844e bfbe
00000160: a936 45bf 713d 4b3f a741 45be ad9b b2be
00000170: d7eb a2be 7e08 163f f580 533e f490 4f3f
00000180: 10db 493f 0a01 dabe b601 cdbe 2ebb 2a3f
00000190: b856 6c3d 6bb2 e43e 7f38 30bf 3986 1bbf
000001a0: 9524 23bf df5a 24bf 5b79 79bb f420 44be
000001b0: d4d3 213f 7a93 d83d 5a70 dbbe 2718 25bf
000001c0: f0dd 013f bd07 e83d 3251 17bf ad48 2a3f
000001d0: 6e9e 3b3f 6788 adbe 1405 1d3e 6702 8dbd
000001e0: e58f f63e 5be5 be3e 970c 8c3e c2be 033f
000001f0: 8377 383d 839f 45bf 3b65 b6bd 4f04 26bf
00000200: 3ff8 3b3f 5b5c 023f 816e aebe 6f1c 3cbf
00000210: 3722 fb3e e240 6f3f e839 3c3d 4574 04bd
00000220: e0bc 133e bc5a a0bd 6e4c a6be 0441 26bf
00000230: 76aa 8c3d e65a b93e 86f1 e5bd 89bd 213e
00000240: ff4d f7bd dea7 a83e 4992 07bf 555e 663f
00000250: b993 cebd 1273 e33e 99df 32bf 5131 93be
00000260: c9f3 0fbd 89c1 483e 743a 123d ae42 133f
00000270: 4d0e 213f d1f6 1ebf 7067 f3bd 645d bd3e
00000280: 0604 aa3e 7679 1cbf fc5f 2d3f 920f 0bbe
00000290: 7a62 9c3e fc41 b1bd 813a a0bd b704 45bf
000002a0: 4f80 22bf 2903 b1be 6e2e 24bf d762 86bd
000002b0: 80e3 7b3e cffc c5bd 0524 2b3e ec83 453e
000002c0: 678c c33d cb32 ac3e 864c 273f fb0f f7be
000002d0: 79c5 0abf 1539 8e3e 15ba 16bf 7068 21bb
000002e0: ebe4 26be 8cca 2dbe 5224 7b3e 963a abbd
000002f0: eaf3 73be 8623 28bd 7904 c23e fd14 b6be
00000300: 2236 17bf 3c50 343f b9a4 cc3d ec53 0fbf
00000310: 4969 04bf e95c 0a3f 3217 a3be 275d 9b3d
00000320: 87e4 34bf c647 29be d42a 37bf 5953 6cbe
00000330: 8035 12be f9bc 803e 108d 123f 1c1b 653d
00000340: 4e9b 883e 232d 943e 5659 043f c314 733e
00000350: b0c9 dcbe f892 6dbc 13e1 2dbf e17f ec3e
00000360: 8b1e 183f 55b7 69be a18b bcbd 9c46 9fbe
00000370: 7490 19bf a129 613f 06d6 a33e 365d 033f
00000380: f11d 96be a5f2 47be 12d9 a1bd cf43 83be
00000390: ef10 a03d fd7b 3fbe 6652 88be 1a27 6ebe
000003a0: 0ae5 3d3f 9be8 b0be c4d1 3b3e 5f1e 52be
000003b0: 93b5 343f 20a9 f3be 62c6 ac3c a3a9 283f
000003c0: d08d 27bf bc56 e93e 8557 3c3e 382a 67be
000003d0: c608 e7bd 8641 113f 7409 553f 3a7f 4e3f
000003e0: d311 563e f8d7 a53d 37bb 92bc 72f4 e2be
000003f0: c50d 3dbe 3ef2 933d 3a40 5ebf 5ddc 6ebe

0.bias f4 [128]
0.3561002 0.64926094 0.21140961 -0.012463526 -0.06601049 -0.5416985 0.24698782 -0.45070314
0.6293436 0.28349957 0.031442996 0.6872448 0.43630394 0.44959322 0.6618194 -0.5327455
-0.4493911 -0.5163082 0.37310228 -0.016476277 -0.23264246 -0.20396046 -0.1645983 -0.099133834
-0.49051237 0.4500388 0.017404536 0.5391985 -0.12292424 0.09897473 0.21424264 0.38421693
0.07214963 -0.53264725 -0.29683912 -0.40862375 0.4588052 0.31804964 0.17829637 -0.42171872
-0.51381654 0.4136129 0.42024985 0.46511602 0.022621904 -0.28789544 0.092756435 0.42656004
0.15842146 -0.5111321 -0.48131308 0.04751754 -0.020710869 -0.55693406 0.02941656 -0.5855427
0.39593247 -0.24351507 0.009909092 -0.46208403 0.26797822 0.42491585 0.29682526 -0.11688062
-0.4519183 0.4343718 -0.14027226 0.386122 -0.22861661 0.022202201 -0.45551547 0.30275595
-0.41695768 -0.1324255 0.13043544 0.28330564 0.28695 0.0549075 0.39467818 0.5479298
0.15364093 -0.052934118 0.33392102 -0.058801528 -0.66657865 -0.068535425 -0.5405117 -0.5141163
0.68752116 0.06682838 0.45956227 -0.13424775 -0.50476956 -0.47594887 0.11575071 0.42802644
0.52189815 -0.271823 0.012041592 -0.078842424 -0.22796568 0.31383598 0.08252552 -0.3179606
0.22138648 0.50649023 -0.13762699 0.50067806 -0.6244347 -0.025701476 0.08135964 -0.6075738
-0.2541352 0.6177803 -0.43335122 -0.26279157 0.21386568 -0.35752958 -0.50966567 0.18783447
-0.5568355 0.5626147 -0.28516993 -0.3064717 -0.28228673 0.14199162 -0.39561757 -0.10711213
00000000: c452 b63e f735 263f c37b 583e d133 4cbc
00000010: 8230 87bd c1ac 0abf 60ea 7c3e 90c2 e6be
00000020: aa1c 213f db26 913e 5fca 003d 46ef 2f3f
00000030: 3b63 df3e 1531 e63e ff6c 293f 0262 08bf
00000040: 9716 e6be c62c 04bf 4307 bf3e 42f9 86bc
00000050: d339 6ebe 03db 50be 758c 28be ae06 cbbd
00000060: 7024 fbbe 7c6b e63e f593 8e3c ea08 0a3f
00000070: b4bf fbbd 43b3 ca3d 6c62 5b3e 15b8 c43e
00000080: 2fc3 933d 925b 08bf 4cfb 97be 2237 d1be
00000090: 84e8 ea3e 67d7 a23e 5393 363e 84eb d7be
000000a0: 7b89 03bf 12c5 d33e fd2a d73e b023 ee3e
000000b0: 9251 b93c 0867 93be 16f7 bd3d 1466 da3e
000000c0: 3c39 223e 8ed9 02bf ab6e f6be c1a1 423d
000000d0: d7a9 a9bc 3b93 0ebf fffa f03c 20e6 15bf
000000e0: a9b7 ca3e 045c 79be bf59 223c 4796 ecbe
000000f0: 7134 893e 928e d93e 7bf9 973e 1b5f efbd
00000100: d661 e7be fb65 de3e 88a3 0fbe c8b1 c53e
00000110: 791a 6abe 64e1 b53c 5339 e9be d402 9b3e
00000120: 7a7b d5be 8d9a 07be de90 053e 700d 913e
00000130: 1ceb 923e b0e6 603d 4213 ca3e 2145 0c3f
00000140: 0c54 1d3e 72d1 58bd b2f7 aa3e dfd9 70bd
00000150: e6a4 2abf 4d5c 8cbd fa5e 0abf 209d 03bf
00000160: 6301 303f 51dd 883d bf4b eb3e 3e78 09be
00000170: 9438 01bf 92af f3be b50e ed3d 4826 db3e
00000180: 1e9b 053f 622c 8bbe 194a 453c 2378 a1bd
00000190: d66f 69be 1caf a03e 2403 a93d bbcb a2be
000001a0: 23b3 623e 58a9 013f 17ee 0cbe 702c 003f
000001b0: f4da 1fbf e78b d2bc e29f a63d f589 1bbf
000001c0: 021e 82be da26 1e3f 36e0 ddbe 9e8c 86be
000001d0: 9bff 5a3e 1e0e b7be 7379 02bf ae57 403e
000001e0: c58c 0ebf 8407 103f cb01 92be dce9 9cbe
000001f0: e387 90be 4066 113e 638e cabe 9b5d dbbd

2.weight f4 [128, 128]
-0.020184716 -0.040466145 0.015466595 -0.107525066 -0.28375995 -0.017362623 -0.083422236 0.012349375
-0.12849133 0.044687103 0.10646349 -0.066956766 0.074174255 0.07358091 -0.0017839238 -0.06848459
0.049569383 -0.02186969 0.04066201 0.021514963 0.10962616 -0.14226484 0.09116106 -0.064963266
0.003609358 -0.08032646 0.06766002 -0.057491533 -0.3493853 0.059046067 0.022004902 0.040375832
0.077724755 -0.04185034 0.066162355 0.12015852 -0.006340694 0.015782958 -0.05645587 0.0074907076
0.06505052 -0.10983238 0.087023936 0.016040333 -0.27726623 0.059777196 0.44280544 -0.039890774
0.120163865 0.039243627 -0.03255557 0.07039383 -0.066668965 -0.045299634 -0.029382316 -0.009454639
-0.091857046 0.07373653 0.14605486 -0.026607677 -0.053687166 -0.0042446475 0.1128302 -0.06090704
0.07186003 0.07246635 0.09784315 -0.011101209 -0.06229734 0.0857372 0.0060713603 -0.059910394
-0.061964717 0.01637458 -0.25821954 -0.022243736 -0.01562763 0.7179178 0.06684487 -0.08898363
0.06588761 -0.067251384 -0.06247665 0.12473211 -0.021184197 0.03729938 0.017862774 0.027729187
-0.0934084 0.03830295 0.04377638 -0.09318846 -0.045753174 0.0137753105 0.021950623 0.062085815
-0.14367428 -0.040361144 -0.6025498 -0.054919653 -0.09797977 0.05686226 -0.55768794 -0.15819283
-0.04929087 -0.05555714 -0.25663385 -0.00250401 -0.05187711 0.1373529 -0.26583517 -0.023161676
0.10023428 0.08142464 0.018607413 -0.05887427 0.113866195 0.016419731 0.020136937 -0.13483793
0.00797325 -0.037513472 0.029621981 -0.15787855 0.059237596 -0.04825983 -0.049182355 -0.04929006
0.028577115 -0.0010878268 0.061470345 0.02017651 0.014250764 -0.019187974 -0.082384326 0.044799786
0.06448964 0.085638635 0.074615195 0.08251176 0.08672813 0.033653654 -0.05907231 0.039774887
-0.04907261 0.05709881 -0.05605147 0.059708502 0.053225216 0.016647734 0.20553735 0.030455535
-0.014850349 0.014552601 0.06320832 -0.054649033 -0.010610127 0.0054746433 -0.02055217 0.09432075
0.03969671 -0.047694586 -0.008629562 -0.00048818582 -0.081235655 0.014554701 -0.00075254275 0.06102267
0.10867962 -0.024342438 0.0019425831 0.032626454 -0.035709746 -0.20367303 0.08552458 -0.032328058
-0.028990211 -0.24838969 0.010621788 0.04579112 0.0044110655 0.0568687 -0.015432463 -0.09356401
0.07636423 -0.006469019 0.0600408 0.06538613 0.04536422 0.06627018 -0.0057846582 0.12961452
-0.07168926 -0.09217513 0.031500842 0.046654664 0.026353234 0.013793155 0.025101926 0.08998901
0.053219445 -0.07713146 0.036972925 0.0013438542 -0.06322459 -0.02991359 0.081778355 0.06821396
0.031988505 -0.005448542 -0.07039973 -0.029873826 -0.075856775 -0.015137876 0.026711995 0.03484818
-0.032843925 -0.022553664 -0.005584181 0.10312207 0.05330438 0.06805729 0.07769535 0.034871843
0.08308491 0.022949861 0.023486283 -0.06144564 0.08576911 -0.035528403 -0.05135008 -0.058179483
-0.002844295 -0.03014821 0.14860241 0.0379693 -0.0828227 0.0100136 0.10913763 0.038900856
-0.116995655 -0.019780423 -0.061877996 -0.051570944 -0.0762073 0.070081405 0.015547302 -0.054570712
0.07245949 0.06848723 0.030079994 -0.03877294 0.019669347 0.06617181 0.038303252 0.04681513
00000000: 6b5a a5bc d4bf 25bd 9a67 7d3c 1a36 dcbd
00000010: fc48 91be 0f3c 8ebc 47d9 aabd 0855 4a3c
00000020: 3b93 03be d309 373d 8809 da3d a120 89bd
00000030: ace8 973d 97b1 963d 8dd2 e9ba a641 8cbd
00000040: 4409 4b3d 1028 b3bc 358d 263d 2640 b03c
00000050: ae83 e03d e0ad 11be a6b2 ba3d 760b 85bd
00000060: fb8a 6c3b 3382 a4bd 5691 8a3d 3e7c 6bbd
00000070: a1e2 b2be 4ada 713d a043 b43c 2161 253d
00000080: 282e 9f3d 436b 2bbd 2180 873d ac15 f63d
00000090: 99c5 cfbb 434b 813c 453e 67bd 9c74 f53b
000000a0: 3539 853d cdef e0bd 9b39 b23d 0467 833c
000000b0: d7f5 8dbe efd8 743d 65b7 e23e 8264 23bd
000000c0: 7918 f63d edbd 203d fd58 05bd a42a 903d
000000d0: bd89 88bd 1c8c 39bd 2fb3 f0bc a1e7 1abc
000000e0: 8c1f bcbd 2e03 973d 688f 153e 58f8 d9bc
000000f0: 13e7 5bbd af16 8bbb 8513 e73d a979 79bd
00000100: 5a2b 933d 3d69 943d fd61 c83d d8e1 35bc
00000110: 7f2b 7fbd fc96 af3d 43f2 c63b 9a64 75bd
00000120: b7ce 7dbd fc23 863c 5a35 84be 7f38 b6bc
00000130: 8405 80bc 76c9 373f f7e5 883d 0d3d b6bd
00000140: 15f0 863d 18bb 89bd 84e7 7fbd 8c73 ff3d
00000150: 7b8a adbc 3cc7 183d f454 923c 5228 e33c
00000160: e74c bfbd 8ee3 1c3d dd4e 333d 97d9 bebd
00000170: ae67 3bbd d7b1 613c cbd1 b33c b24d 7e3d
00000180: 5a1f 13be ba51 25bd b440 1abf 6ef3 60bd
00000190: 9ea9 c8bd 67e8 683d a3c4 0ebf 4dfd 21be
000001a0: 39e5 49bd e28f 63bd 8365 83be 511a 24bb
000001b0: 187d 54bd 3da6 0c3e 8c1b 88be 8ebd bdbc
000001c0: a147 cd3d f6c1 a63d 936e 983c 2626 71bd
000001d0: ae32 e93d ac82 863c 38f6 a43c f412 0abe
000001e0: 3ca2 023c baa7 19bd cca9 f23c eaaa 21be
000001f0: 1fa3 723d 19ac 45bd 7073 49bd 60e4 49bd
00000200: 8e1a ea3c 6995 8eba 54c8 7b3d 3549 a53c
00000210: 097c 693c 1930 9dbc 1db9 a8bd fb7f 373d
00000220: 2513 843d 4f63 af3d dacf 983d edfb a83d
00000230: 859e b13d 6ad8 093d cef5 71bd feea 223d
00000240: 5c00 49bd 71e0 693d 3a96 65bd e790 743d
00000250: af02 5a3d d460 883c 6278 523e e37d f93c
00000260: e14e 73bc 086e 6e3c 5d73 813d aad7 5fbd
00000270: 19d6 2dbc a364 b33b 065d a8bc 3d2b c13d
00000280: 0499 223d 665b 43bd 0263 0dbc 31f3 ffb9
00000290: e15e a6bd d776 6e3c 4a46 45ba e8f2 793d
000002a0: 6c93 de3d cb69 c7bc 469e fe3a 51a3 053d
000002b0: 6244 12bd aa8f 50be 8327 af3d 6d6a 04bd
000002c0: e17c edbc de59 7ebe 0207 2e3c 788f 3b3d
000002d0: b38a 903b 27ef 683d 71d8 7cbc 7d9e bfbd
000002e0: d964 9c3d 11fa d3bb 58ed 753d 2ae9 853d
000002f0: d5cf 393d a9b8 873d 3b8d bdbb abb9 043e
00000300: d2d1 92bd 51c6 bcbd 0707 013d f618 3f3d
00000310: bde2 d73c affc 613c 8ea2 cd3c 284c b83d
00000320: a2fc 593d 19f7 9dbd ec70 173d 4424 b03a
00000330: e57b 81bd 580d f5bc 697b a73d c3b3 8b3d
00000340: 6106 033d af89 b2bb bc2d 90bd f4b9 f4bc
00000350: cc5a 9bbd db04 78bc 1dd3 da3c f7bc 0e3d
00000360: 5a87 06bd 76c2 b8bc 81fb b6bb aa31 d33d
00000370: b255 5a3d 9f61 8b3d bd1e 9f3d c7d5 0e3d
00000380: 6c28 aa3d 5901 bc3c 4e66 c03c 6cae 7bbd
00000390: b7a7 af3d 3b86 11bd 7654 52bd 9c4d 6ebd
000003a0: 5a67 3abb 61f9 f6bc 3b2b 183e b285 1b3d
000003b0: f39e a9bd 1510 243c 8d83 df3d 8156 1f3d
000003c0: 6b9b efbd 8e0a a2bc c873 7dbd 0e3c 53bd
000003d0: 9312 9cbd d786 8f3d 1cba 7e3c 8a85 5fbd
000003e0: a465 943d 0843 8c3d 526a f63c 60d0 1ebd
000003f0: 9c21 a13c 1685 873d dfe3 1c3d 39c1 3f3d

2.bias f4 [128]
0.041087613 0.047813397 -0.040832285 0.0042345882 0.019806603 0.03340344 0.005815084 0.05718949
0.056965034 0.047845285 -0.022359233 -0.07282365 0.0317706 -0.080899484 -0.08628492 0.028210534
0.015413456 -0.012951257 -0.037265223 0.0005533465 0.009341346 0.04853519 -0.031289596 -0.010763772
0.08986325 -0.0506603 -0.04716495 0.03933529 0.045281366 0.020584224 -0.038504247 0.047309693
-0.050676074 0.104387864 0.05230224 0.09130738 -0.018127553 -0.023906227 -0.07979852 0.051633257
-0.07454014 -0.041838825 0.040459283 0.04666539 0.05712669 0.05111028 -0.021786211 -0.0027121813
0.05026911 0.087836154 0.06876484 0.038338657 -0.04140316 -0.008472267 0.008739018 0.050960902
0.10308623 0.06885917 0.081171446 0.024645777 0.07585653 0.01456312 -0.070687406 0.035797033
0.0056343125 0.0173727 0.05562828 -0.04828863 -0.03367301 0.03889124 -0.043560475 0.03816069
0.0012033678 -0.039260663 0.06682499 -0.053150617 0.016413681 -0.05858794 -0.011666338 -0.04974378
-0.00028415248 0.03291869 0.026776008 0.03628427 0.098393455 0.025823673 0.006450783 0.086694464
0.04565674 0.06932919 0.08451317 0.0084205335 0.026689183 0.039669476 0.0416437 0.014864214
0.070041664 0.065289445 0.052328035 -0.069955796 0.04857024 0.08709857 0.08300044 -0.070508644
-0.06877295 -0.004888196 0.06070051 0.029992694 -0.049106456 -0.0707766 -0.05524303 -0.041865557
0.01396919 -0.05109109 0.08410865 -0.017236592 0.04034148 -0.018770417 0.07256234 -0.043750085
-0.050100025 0.060981356 0.05541201 -0.021482375 -0.024621362 -0.08147731 0.051219396 -0.022297874
00000000: 7c4b 283d fbd7 433d c13f 27bd 4dc2 8a3b
00000010: 7541 a23c 0cd2 083d 768c be3b 873f 6a3d
00000020: 2b54 693d 6bf9 433d b62a b7bc 9124 95bd
00000030: e321 023d a1ae a5bd 26b6 b0bd c719 e73c
00000040: b888 7c3c 8231 54bc 6ba3 18bd 740e 113a
00000050: 720c 193c d6cc 463d 8529 00bd 885a 30bc
00000060: 390a b83d 2d81 4fbd 0930 41bd 0b1e 213d
00000070: f478 393d 3fa0 a83c a1b6 1dbd cfc7 413d
00000080: b791 4fbd 4ec9 d53d e03a 563d 5dff ba3d
00000090: 3c80 94bc fed6 c3bc 686d a3bd 657d 533d
000000a0: 80a8 98bd 305f 2bbd a2b8 253d 3524 3f3d
000000b0: adfd 693d 0359 513d ff78 b2bc dabe 31bb
000000c0: fbe6 4d3d 71e3 b33d 95d4 8c3d ff08 1d3d
000000d0: 5c96 29bd 43cf 0abc 192e 0f3c 61bc 503d
000000e0: e01e d33d 0906 8d3d 373d a63d f1e5 c93c
000000f0: ab5a 9b3d 279a 6e3c 8fc4 90bd e99f 123d
00000100: 0aa0 b83b 3151 8e3c 7bda 633d 4cca 45bd
00000110: b6ec 09bd 6c4c 1f3d 786c 32bd 624e 1c3d
00000120: 53ba 9d3a cacf 20bd 8adb 883d 76b4 59bd
00000130: fc75 863c e8f9 6fbd 2b24 3fbc 22c0 4bbd
00000140: 4dfa 94b9 c0d5 063d 5c59 db3c d19e 143d
00000150: 8282 c93d 2b8c d33c 1761 d33b de8c b13d
00000160: 9002 3b3d 76fc 8d3d 3e15 ad3d 47f6 093c
00000170: 46a3 da3c 767c 223d 9692 2a3d 0889 733c
00000180: 0172 8f3d 79b6 853d ec55 563d fc44 8fbd
00000190: 97f1 463d bc60 b23d 22fc a93d d666 90bd
000001a0: d5d8 8cbd 292d a0bb 19a1 783d 3db3 f53c
000001b0: da23 49bd 52f3 90bd 8446 62bd 387b 2bbd
000001c0: 08df 643c e444 51bd 2841 ac3d c133 8dbc
000001d0: 1c3d 253d 6bc4 99bc 909b 943d 4a33 33bd
000001e0: af35 4dbd 96c7 793d b4f7 623d cefb afbc
000001f0: bdb2 c9bc 93dd a6bd 6ecb 513d 08aa b6bc

4.weight f4 [128, 128]
-0.0020064488 0.017354507 0.040728744 0.012708941 0.057251368 -0.032416012 -0.063822754 -0.9271489
0.027159777 0.13777165 -0.06030183 0.047521923 -0.024261417 0.042602062 0.030188216 -0.07943421
-0.0015109046 -1.2033393 -0.05226448 0.037570246 0.01340129 -0.02046131 0.08555344 0.007373283
0.088281386 -0.0031991121 -0.014287301 -0.05682623 0.036357697 0.08540093 0.024722865 -0.060493797
-0.076548934 -0.037027568 0.10996822 0.042161956 -0.065672085 0.061897833 0.00574024 -1.3189694
0.038968615 0.037549865 -0.023029234 -0.113753214 -0.009731729 -0.056038655 0.021151714 0.036332577
-0.28266627 -0.028106399 0.010316802 0.0619185 0.055749856 -0.033824004 0.026276913 -0.0050988216
-0.032659493 -0.3679579 -0.0310094 0.0887623 0.050034873 -0.0564894 -0.027828656 0.0031606418
-0.69456667 0.014783616 -0.06386142 0.023939556 -0.038370695 0.13851583 -0.09258343 -0.026401669
0.013766875 0.128623 -0.04764554 0.0944493 0.07048777 0.027899716 0.03322761 -1.0463151
-0.0363485 -0.112022154 -0.3688786 0.015694572 -0.036195025 -0.070173286 -0.007199835 -0.07355593
-0.08419556 -0.68165857 0.045725077 0.072133794 -0.01679826 0.083220616 -0.015879747 -0.069113605
-0.11338006 -0.026427891 0.0657184 0.058650564 -0.118228406 0.016222667 0.004059256 -0.5186905
0.0443073 -0.0280172 0.13774724 0.42628637 -0.004437113 0.078253984 -0.008969329 -0.042773347
0.077632844 -0.06952195 -0.0018988996 -0.013838655 -0.0072836773 0.05888202 -0.030386768 -0.30384305
-0.047475394 -0.06785909 0.06912237 0.25767007 -0.0013575299 -0.4895126 0.06634099 0.051403858
0.14626521 0.03772714 0.012197794 0.047623422 0.12959775 -0.0048695784 -0.057054665 0.09583278
-0.017030634 0.10282611 -0.01460771 -0.04297404 -0.9597382 -0.16623296 0.091431424 0.017706132
0.040373992 0.05925809 0.068969764 0.041450784 -0.03589141 0.05520171 0.06334676 -0.112973
-0.08210754 0.016005613 0.04148836 -0.041992165 -0.005795174 -0.07785066 0.0023777392 0.033434264
0.05174005 -0.05518693 -0.15212834 -0.025952619 -0.060043316 -0.062075242 -0.11233873 0.011649875
-1.6100123 0.04217101 -0.010778009 0.16124946 0.058771707 0.047765933 0.014864772 -0.070610456
0.06911965 0.108391285 -0.033453304 -0.0066969763 -0.045800053 -0.053179085 -0.047618233 -0.04315765
-0.013030018 0.15292183 -0.07723541 -0.38643917 -0.053022016 -0.018361857 0.003663288 -0.0049989293
-0.055580698 0.10484724 0.06862297 -0.024454573 0.09714461 -0.0052566985 0.033513393 0.043345273
0.0023057067 0.36240664 0.07397389 -0.04319927 0.02109319 -0.0012793296 -5.8033514 0.022120673
-0.017539058 -0.016549343 0.088773444 -0.043045968 -0.047696475 -0.12464489 0.10280872 -0.03912584
-0.037705522 0.068250544 -0.6659013 -0.08887699 0.032737263 0.08438065 0.049242496 0.018131655
0.13614091 0.024717746 -0.057413325 0.027789593 -0.19482777 -0.017158816 -0.09493119 -0.15689754
-0.5447473 -0.0402995 -0.029748762 0.15304124 -0.27845114 -0.18370894 -0.05373364 -0.051116146
-0.7448759 0.037090886 -0.020353373 0.11233742 -0.007504101 -0.18727134 -0.00051179196 0.2639035
-0.008932594 -0.05601312 0.0648458 0.117551886 -0.14153181 0.07539808 0.1845783 0.09451322
00000000: a07e 03bb 0a2b 8e3c 2fd3 263d 2939 503c
00000010: 6980 6a3d a7c6 04bd 81b5 82bd a159 6dbf
00000020: 2e7e de3c 0314 0d3e 0dff 76bd 59a6 423d
00000030: e1bf c6bc 807f 2e3d 474d f73c 67ae a2bd
00000040: 8c09 c6ba 0607 9abf 4813 56bd 42e3 193d
00000050: 1691 5b3c 7a9e a7bc a436 af3d 959b f13b
00000060: dfcc b43d 32a8 51bb 4915 6abc 9fc2 68bd
00000070: cfeb 143d afe6 ae3d 9b87 ca3c 58c8 77bd
00000080: b0c5 9cbd 38aa 17bd 0537 e13d 04b2 2c3d
00000090: 167f 86bd 9588 7d3d a018 bc3b fdd3 a8bf
000000a0: 8e9d 1f3d e3cd 193d cea7 bcbc 72f7 e8bd
000000b0: d471 1fbc ca88 65bd 5c46 ad3c 78d1 143d
000000c0: a2b9 90be 643f e6bc ce07 293c 419e 7d3d
000000d0: f659 643d 0a8b 0abd ae42 d73c 0414 a7bb
000000e0: f6c5 05bd fa64 bcbe 6d07 febc 02c9 b53d
000000f0: 5ef1 4c3d 6e61 67bd ecf8 e3bc c522 4f3b
00000100: 1fcf 31bf fb36 723c c7c9 82bd e31c c43c
00000110: 972a 1dbd 18d7 0d3e 629c bdbd 5048 d8bc
00000120: 758e 613c bfb5 033e f827 43bd a26e c13d
00000130: e45b 903d f28d e43c ad19 083d a7ed 85bf
00000140: 2ae2 14bd df6b e5bd a8dd bcbe e791 803c
00000150: 3c41 14bd 03b7 8fbd 98ec ebbb 7ea4 96bd
00000160: b96e acbd 2d81 2ebf 384a 3b3d e2ba 933d
00000170: 819c 89bc 926f aa3d 3e16 82bc 6f8b 8dbd
00000180: ce33 e8bd 4e7f d8bc 5e97 863d 933b 703d
00000190: bc21 f2bd 66e5 843c 8203 853b e7c8 04bf
000001a0: 927b 353d 5484 e5bc 9d0d 0d3e 3542 da3e
000001b0: 3465 91bb a043 a03d 18f4 12bc 1b33 2fbd
000001c0: f8fd 9e3d 8661 8ebd 7fe4 f8ba 87bb 62bc
000001d0: eaab eebb 462e 713d aced f8bc 5191 9bbe
000001e0: 8f75 42bd b5f9 8abd 0790 8d3d 55ed 833e
000001f0: 25ef b1ba 65a1 fabe c9dd 873d da8c 523d
00000200: 8cc6 153e c687 1a3d 42d9 473c c710 433d
00000210: 46b5 043e fc90 9fbb 27b2 69bd fa43 c43d
00000220: d483 8bbc 7f96 d23d 2d55 6fbc 8c05 30bd
00000230: 67b1 75bf f938 2abe 6640 bb3d 730c 913c
00000240: 335f 253d 9cb8 723d 0540 8d3d 4cc8 293d
00000250: df02 13bd 301b 623d f2bb 813d 635e e7bd
00000260: ff27 a8bd 341e 833c b3ef 293d faff 2bbd
00000270: 71e5 bdbb 2b70 9fbd d8d3 1b3b 5ef2 083d
00000280: 60ed 533d b10b 62bd 88c7 1bbe 969a d4bc
00000290: fbef 75bd 9c42 7ebd d911 e6bd 1edf 3e3c
000002a0: e214 cebf 82bb 2c3d 3f96 30bc 941e 253e
000002b0: 9aba 703d 36a6 433d 5f8b 733c 379c 90bd
000002c0: 9a8e 8d3d 40fc dd3d 5506 09bd 4f72 dbbb
000002d0: d698 3bbd 50d2 59bd 560b 43bd 13c6 30bd
000002e0: db7b 55bc 8a97 1c3e 992d 9ebd 5bdb c5be
000002f0: 9d2d 59bd 9b6b 96bc c613 703b 0fce a3bb
00000300: 96a8 63bd 26ba d63d 338a 8c3d f554 c8bc
00000310: c1f3 c63d 6240 acbb 5745 093d d08a 313d
00000320: 571b 173b 5d8d b93e 9f7f 973d b8f1 30bd
00000330: a0cb ac3c 2eaf a7ba 0eb5 b9c0 6a36 b53c
00000340: 12ae 8fbc 7d92 87bc dace b53d f850 30bd
00000350: 615d 43bd d245 ffbd 618d d23d 6b42 20bd
00000360: 1b71 1abd f1c6 8b3d 8278 2abf 2405 b6bd
00000370: 8217 063d c3cf ac3d 80b2 493d d688 943c
00000380: 8668 0b3e df7c ca3c 3c2a 6bbd 00a7 e33c
00000390: ee80 47be a590 8cbc 496b c2bd c0a9 20be
000003a0: 8f74 0bbf 1711 25bd adb3 f3bc d8b6 1c3e
000003b0: 2691 8ebe 321e 3cbe ce17 5cbd 2a5f 51bd
000003c0: 30b0 3ebf 9dec 173d 1ebc a6bc 2911 e63d
000003d0: f6e4 f5bb 0fc4 3fbe c729 06ba 5c1e 873e
000003e0: 045a 12bc 036e 65bd e0cd 843d 0bbf f03d
000003f0: b7ed 10be 4f6a 9a3d 1802 3d3e 2690 c13d

4.bias f4 [128]
0.012775552 -0.011202848 0.013483856 -0.050372455 -0.0013719125 0.04229656 0.09248496 -0.010140359
-0.020062305 0.016469838 0.0023169061 0.10599396 0.060860462 -0.013207478 0.06912571 -0.021174965
0.0030548335 0.0014930329 0.07647367 0.017035227 -0.06958026 -0.02979719 -0.06279011 0.015935604
0.04862061 -0.019310758 -0.044650357 0.010950072 -0.06794145 -0.038666733 -0.029050717 -0.027765486
-0.069010355 -0.025420668 0.065299526 0.055651225 0.0042194775 -0.018441588 0.04828296 -0.01777559
0.004345853 0.09937367 0.0150025245 0.06416617 0.036793455 -0.029838122 0.019701986 0.086169556
-0.031882424 0.094338454 0.042096455 0.057411864 0.09252546 0.05562074 -0.07287253 0.052916538
0.07005322 -0.05365075 0.091279835 0.027647259 0.06062931 -0.032153223 0.06059224 0.0665126
0.06750726 -0.029354893 -0.08549081 0.045204036 0.053532258 -0.013087855 -0.035251018 -0.05588171
0.0769949 -0.07499218 -0.069122545 0.051893566 -0.036548104 -0.037493333 -0.027444718 0.0356972
-0.0005049262 -0.040236477 -0.0026876756 0.084481366 0.04380553 -0.026655404 -0.026784685 0.00032271372
-0.062209338 0.0444683 -0.043883134 0.08954644 0.057580132 -0.033533152 0.056442536 0.036133435
-0.055455524 -0.041356318 -0.02821993 0.018740706 -0.074930675 0.0290814 -0.052642725 0.03560858
0.05641346 0.08670216 0.017194603 0.062982604 -0.049566276 0.085551985 0.08201014 -0.06756688
-0.04318984 -0.0027809276 0.04921121 -0.05613947 0.05377824 0.031411804 0.025982862 0.012643012
0.06517018 -0.010617383 -0.0042134207 -0.060046438 0.049895532 0.108245246 -0.043016586 0.021947136
00000000: 8d50 513c 268c 37bc 64eb 5c3c 5953 4ebd
00000010: bfd1 b3ba 283f 2d3d c168 bd3d c023 26bc
00000020: b459 a4bc c1eb 863c 3cd7 173b 5c13 d93d
00000030: d248 793d 2e64 58bc c891 8d3d 1f77 adbc
00000040: 9a33 483b dfb1 c33a 3a9e 9c3d 768d 8b3c
00000050: 1880 8ebd 3d19 f4bc 1a98 80bd 628b 823c
00000060: 6826 473d 9831 9ebc 4be3 36bd ee67 333c
00000070: e324 8bbd 0261 1ebd c5fb edbc 7274 e3bc
00000080: 4d55 8dbd 013f d0bc c2bb 853d 8af2 633d
00000090: 8b43 8a3b d012 97bc 5ac4 453d 1d9e 91bc
000000a0: a867 8e3b 6c84 cb3d 26cd 753c 8e69 833d
000000b0: bcb4 163d 146f f4bc 0f66 a13c aa79 b03d
000000c0: 2597 02bd 8534 c13d 556d 2c3d b428 6b3d
000000d0: fd7d bd3d 93d2 633d 313e 95bd 03bf 583d
000000e0: 1078 8f3d e4c0 5bbd ecf0 ba3d 817c e23c
000000f0: 7056 783d 19b3 03bd 922f 783d c237 883d
00000100: 3f41 8a3d ac79 f0bc ce15 afbd de27 393d
00000110: a444 5b3d 716e 56bc 5f63 10bd 38e4 64bd
00000120: 81af 9d3d 8095 99bd 1f90 8dbd 598e 543d
00000130: 77b3 15bd 9c92 19bd bfd3 e0bc 3a37 123d
00000140: 065d 04ba 01cf 24bd b723 30bb 9104 ad3d
00000150: 6d6d 333d 6f5c dabc 8e6b dbbc e731 a939
00000160: 38cf 7ebd 6424 363d cdbe 33bd 2064 b73d
00000170: 25d9 6b3d 0f5a 09bd 4a30 673d a700 143d
00000180: 5525 63bd 3e65 29bd 7c2d e7bc 1c86 993c
00000190: 4175 99bd 1e3c ee3c e69f 57bd 4dda 113d
000001a0: cd11 673d e790 b13d b2db 8c3c 06fd 803d
000001b0: 0206 4bbd e135 af3d eff4 a73d 8160 8abd
000001c0: d4e7 30bd 3940 36bb b291 493d 80f2 65bd
000001d0: 9246 5c3d aaa9 003d 03da d43c a324 4f3c
000001e0: f177 853d 88f4 2dbc bc10 8abb 41f3 75bd
000001f0: 425f 4c3d afaf dd3d 2932 30bd 7bca b33c

6.weight f4 [2, 128]
-0.19903566 0.15549062 -0.17096455 -0.048158098 -0.13292658 0.08832642 -0.044158086 0.099424236
0.03976333 0.052552223 -0.047355633 0.05801617 0.00068361044 -0.08294335 0.0987315 -0.28799236
-0.20400016 -0.045335688 0.04533147 0.044848204 -0.038642026 -0.026758052 0.039010897 -0.020080645
0.07127663 0.07750844 -0.13540186 -0.023812994 0.48546302 0.057479147 -0.11566575 0.048832215
0.05699276 0.103972554 -0.18528742 0.028928252 -0.019295206 0.011382771 0.021060515 -0.20867808
-0.049848087 0.091968626 -0.011926757 0.08506237 -0.2497316 0.1149702 0.029324973 0.007828205
0.10377498 0.09725279 -0.12880132 0.036461692 0.06554081 0.027827226 -0.0025455786 0.09845122
0.022861512 0.16492762 -0.062387433 -0.15263882 0.0076944144 -0.22900322 -0.10765861 -0.08514951
-0.0006413071 -0.013751065 -0.048576433 0.04205146 -0.081523456 0.10284055 0.083144225 -0.029194068
-0.07471313 -0.015582137 0.038322225 0.11995693 0.00020940158 -0.0017602616 0.048813503 0.018137703
0.069200784 -0.007927399 0.007172053 -0.033391856 0.06159221 0.040318392 -0.07333275 -0.12289883
0.065159254 -0.13549009 0.034380954 0.12378654 -0.07286262 -0.045858506 0.018700875 0.07981716
0.05658013 -0.053940788 0.03147502 -0.018334381 0.05843981 -0.0801125 -0.06071727 0.0839482
-0.030871278 0.08894272 0.07463701 0.07099035 0.04466776 -0.115154564 0.09273331 0.02851952
0.106650405 -0.08307592 -0.0686031 -0.019750316 0.025321035 0.14477716 0.04370098 0.113544084
0.0029130143 0.09763731 0.02179628 -0.037437603 -0.16584854 0.07253623 -0.4068166 -0.06581924
0.037530303 -0.109061554 -0.12014345 0.045386765 -0.10292087 -0.053337093 0.08413552 -0.21173272
0.10063166 0.0810959 -0.06613205 0.035850257 0.020284662 -0.12196594 -0.13939065 0.056776453
0.1513368 0.10812368 0.06181365 0.13380349 0.07368151 0.033886667 -0.0399691 0.095230445
-0.045224536 -0.11593251 -0.07073897 -0.17664573 -0.12564951 0.09562645 0.034653533 -0.12332457
0.059904028 0.045000184 0.023307433 0.08122293 0.038758375 0.10225498 -0.042218655 0.060897145
-0.054760445 -0.020115575 -0.055860147 0.07723688 -0.111323476 -0.15957442 0.08730799 0.06578295
-0.056462932 0.10151031 -0.07426926 -0.04227818 0.024795 0.05313467 -0.07075055 0.029146874
-0.060714006 0.1163889 0.0748524 0.011841331 -0.11786151 0.10986484 -0.08743571 0.113627635
0.10276933 0.0020711906 0.01145589 0.02279944 0.113957785 0.06844951 -0.0067053093 -0.06672012
0.085397266 -0.1728353 0.025458092 0.12977794 -0.102610655 0.07276973 -0.06780557 0.06078046
-0.27975857 0.09096769 -0.0031920257 0.07610179 0.05057005 -0.0030253986 0.09359632 -0.1549091
0.02218742 -0.05686841 0.0038476894 -0.06524249 0.015843537 0.08991308 0.021415552 -0.017079918
0.028856343 -0.025709098 0.045611694 0.016673205 -0.044962496 -0.001512847 -0.033465505 0.034969263
-0.1563319 -0.15330885 0.08667938 0.020173293 0.07108897 0.07003 -0.08795268 -0.021710427
-0.09927901 0.0339085 0.08747506 0.03618889 -0.20085783 -0.085227504 0.05915831 -0.09528078
-0.12681274 -0.14197288 0.049591094 0.049744036 -0.09541035 0.058525313 -0.2091794 0.07908558
00000000: 01d0 4bbe ef38 1f3e 5511 2fbe 6d41 45bd
00000010: e81d 08be 7be4 b43d 1cdf 34bd ef9e cb3d
00000020: e0de 223d 0041 573d fbf7 41bd 5da2 6d3d
00000030: 5234 333a 34de a9bd be33 ca3d bc73 93be
00000040: 6be5 50be eab1 39bd 7ead 393d c0b2 373d
00000050: 1a47 1ebd b433 dbbc e4c9 1f3d 2a80 a4bc
00000060: 7bf9 913d bfbc 9e3d c9a6 0abe 7813 c3bc
00000070: 9c8e f83e 416f 6b3d 2ae2 ecbd 4a04 483d
00000080: 3e71 693d 90ef d43d fcbb 3dbe f1fa ec3c
00000090: fb10 9ebc cd7e 3a3c 1a87 ac3c b5af 55be
000000a0: 822d 4cbd 0c5a bc3d 7268 43bc 2e35 ae3d
000000b0: a4b9 7fbe 7f75 eb3d ed3a f03c df41 003c
000000c0: fa87 d43d 792c c73d 7ee4 03be db58 153d
000000d0: 433a 863d ecf5 e33c b9d3 26bb cba0 c93d
000000e0: 1148 bb3c c9e2 283e f789 7fbd 5a4d 1cbe
000000f0: 6d21 fc3b d27f 6abe 1e7c dcbd de62 aebd
00000100: 641d 28ba 264c 61bc 15f8 46bd 273e 2c3d
00000110: c5f5 a6bd 119e d23d 8547 aa3d 6628 efbc
00000120: 3303 99bd 384c 7fbc c4f7 1c3d fbab f53d
00000130: cf92 5b39 94b8 e6ba abf0 473d 8595 943c
00000140: 24b9 8d3d ece1 01bc 8b03 eb3b e6c5 08bd
00000150: 1d48 7c3d e624 253d 7b2f 96bd 62b2 fbbd
00000160: 3772 853d eabd 0abe 0bd3 0c3d cc83 fd3d
00000170: ff38 95bd 21d6 3bbd 9432 993c 2e77 a33d
00000180: 91c0 673d 04f1 5cbd f3eb 003d fc31 96bc
00000190: 955e 6f3d 0612 a4bd acb2 78bd 09ed ab3d
000001a0: c3e5 fcbc 9a27 b63d 4adb 983d 6363 913d
000001b0: 8bf5 363d 28d6 ebbd f6ea bd3d c5a1 e93c
000001c0: 876b da3d b523 aabd c87f 8cbd 6acb a1bc
000001d0: 0f6e cf3c 7740 143e ccff 323d cd89 e83d
000001e0: 45e8 3e3b 12f6 c73d 1d8e b23c 2c58 19bd
000001f0: 33d4 29be e08d 943d 444a d0be 3dcc 86bd
00000200: 60b9 193d aa5b dfbd c50d f6bd 79e7 393d
00000210: 2dc8 d2bd ff77 5abd 3e4f ac3d 76d0 58be
00000220: f917 ce3d 9b15 a63d 3d70 87bd b8d7 123d
00000230: 052c a63c 47c9 f9bd 6cbc 0ebe 6d8e 683d
00000240: 09f8 1a3e f36f dd3d 4f30 7d3d c803 093e
00000250: 55e6 963d bfcc 0a3d a4b6 23bd 2e08 c33d
00000260: 5d3d 39bd 066e edbd 98df 90bd 9ee2 34be
00000270: 44aa 00be cdd7 c33d ddf0 0d3d 9891 fcbd
00000280: ed5d 753d 1d52 383d 3bef be3c 3558 a63d
00000290: 1ac1 1e3d 0f6b d13d 78ed 2cbd 496f 793d
000002a0: 7d4c 60bd 6bc9 a4bc 9ccd 64bd 5f2e 9e3d
000002b0: 90fd e3bd 7a67 23be 88ce b23d 36b9 863d
000002c0: ad45 67bd a3e4 cf3d 7b1a 98bd e32b 2dbd
000002d0: e21e cb3c bda3 593d aae5 90bd 6dc5 ee3c
000002e0: 40af 78bd 4e5d ee3d 374c 993d 2402 423c
000002f0: 6061 f1bd d100 e13d 7e11 b3bd 9bb5 e83d
00000300: ba78 d23d d0bc 073b 7cb1 3b3c e4c5 ba3c
00000310: b362 e93d 422f 8c3d 36b8 dbbb 8fa4 88bd
00000320: c3e4 ae3d bdfb 30be 7d8d d03c 82e4 043e
00000330: 8925 d2bd 4c08 953d a6dd 8abd eef4 783d
00000340: 843c 8fbe 454d ba3d 4e31 51bb 41db 9b3d
00000350: 8a22 4f3d c445 46bb 6daf bf3d 7ea0 1ebe
00000360: 64c2 b53c daee 68bd 8429 7c3b db9d 85bd
00000370: 4eca 813c 5924 b83d ab6f af3c 2feb 8bbc
00000380: 2364 ec3c e39b d2bc 54d3 3a3d 3f96 883c
00000390: 982a 38bd b94a c6ba 2013 09bd ee3b 0f3d
000003a0: 7815 20be fffc 1cbe f584 b13d 7642 a53c
000003b0: 1897 913d e36b 8f3d 8920 b4bd 11da b1bc
000003c0: cb52 cbbd a4e3 0a3d 2026 b33d cd3a 143d
000003d0: adad 4dbe c28b aebd fc4f 723d 9222 c3bd
000003e0: 33db 01be 5761 11be 0820 4b3d 67c0 4b3d
000003f0: 8066 c3bd 3db8 6f3d 2033 56be 9ff7 a13d

6.bias f4 [2]
0.08028886 -0.054965075
00000000: 7c6e a43d 0f23 61bd
