checkpoints/wifi_IT_T_1.0.pth (torch, 137655 bytes, 8 tensors)

0.weight f4 [128, 2]
0	0x3cbe5170	0.023232192
1	0xbeac4d51	-0.33652738
2	0xbf195abc	-0.59904075
3	0x3f0140e7	0.5048966
4	0xbcffa818	-0.031208083
5	0xbf13b514	-0.5769818
6	0xbf4d80d4	-0.802747
7	0xbf63473b	-0.88780564
8	0x3f1d13bd	0.61358243
9	0x3e0d5590	0.13802171
10	0x3ebeb664	0.37248528
11	0x3f03e5ff	0.5152282
12	0xbd290254	-0.041261986
13	0xbdf396d2	-0.11894001
14	0x3f3d2cbf	0.738964
15	0x3f126921	0.57191664
16	0x3f34dd53	0.70650214
17	0x3ea8b354	0.32949317
18	0x3ecda6da	0.4016636
19	0xbf226b25	-0.6344474
20	0xbbb959c9	-0.005656455
21	0xbf1bdd24	-0.6088431
22	0xbebce222	-0.36891276
23	0xbcd9f702	-0.02660704
24	0xbf02c2c1	-0.5107842
25	0xbe9f4e72	-0.31114537
26	0x3ea6fd73	0.3261524
27	0x3e0da612	0.13832882
28	0xbed15f02	-0.40892798
29	0x3e3c0a11	0.18363215
30	0x3f2c8cda	0.6740242
31	0xbf56e611	-0.83944803
32	0x3e971a59	0.2951229
33	0xbdc171c3	-0.094455265
34	0xbf273907	-0.6532139
35	0x3e95bea2	0.29247004
36	0xbeb9e229	-0.3630536
37	0x3f144118	0.57911825
38	0xbe514a99	-0.20438613
39	0xbe706d4a	-0.2347919
40	0x3dd344d2	0.10315861
41	0xbf19b683	-0.60044116
42	0x3f4a45e0	0.7901287
43	0xbf67b5d1	-0.90511805
44	0x3d7f9ec7	0.06240728
45	0x3dea80eb	0.114503704
46	0xbe1a60f1	-0.15076043
47	0xbf3c7b18	-0.73625326
48	0xbe5ad9af	-0.21372102
49	0xbf6ab49e	-0.9168185
50	0xbe39511f	-0.18097351
51	0xbf3bd326	-0.7336906
52	0x3ecfb243	0.4056569
53	0x3e35bd41	0.17747976
54	0xbed524e3	-0.41629705
55	0x3f6aef17	0.9177107
56	0xbd165d53	-0.036710095
57	0xbe8d0213	-0.27540645
58	0xbee6353e	-0.44962496
59	0xbef8d05f	-0.48596475
60	0xbf558f9d	-0.8342226
61	0x3f23c3e4	0.6397078
62	0xbf544a30	-0.829257
63	0x3f0a06c5	0.5391658
64	0x3f10e71b	0.5660264
65	0xbee63de8	-0.44969106
66	0x3f49859c	0.78719497
67	0xbf36555e	-0.7122401
68	0x3e348736	0.17629704
69	0xbe3a5c63	-0.18199305
70	0x3f19750d	0.5994423
71	0x3f18a2af	0.59623235
72	0x3ce8b49b	0.028406432
73	0xbf433ca0	-0.7626438
74	0xbef2ffe6	-0.4746086
75	0xbf20d779	-0.62828785
76	0x3f866f5c	1.0502734
77	0x3f4bcdbb	0.79610795
78	0xbf1b495f	-0.6065883
79	0x3d821ae6	0.06352787
80	0xbf218f9a	-0.63109744
81	0x3f210865	0.62903434
82	0xbc736239	-0.014854961
83	0xbf0aa89f	-0.54163545
84	0xbf7fba3e	-0.9989356
85	0x3f346c04	0.7047732
86	0xbec65402	-0.38735968
87	0xbf8f6057	-1.1201276
88	0x3f676973	0.9039528
89	0x3cd79482	0.026315931
90	0xbf0622dd	-0.5239695
91	0x3e77c151	0.24194838
92	0xbd9df0c2	-0.077119365
93	0x3f16bbcc	0.58880305
94	0xbe40c41c	-0.1882481
95	0x3e9e5d29	0.3093045
96	0xbf41c8f2	-0.75697243
97	0x3ec9f4dc	0.39444625
98	0x3f12b670	0.5730963
99	0xbf249a6c	-0.6429813
100	0xbf285563	-0.6575529
101	0x3d017eb7	0.031614985
102	0x3faf2895	1.368426
103	0xbf1841c9	-0.5947538
104	0x3f31fdfa	0.6952816
105	0xbdd1be67	-0.102413945
106	0x3f2a5b85	0.665459
107	0x3f5e2ff3	0.86791915
108	0x3c98cef1	0.018653365
109	0xbd2f511f	-0.042801972
110	0x3f190f11	0.59788615
111	0xbe9bac57	-0.30404922
112	0xbf379201	-0.7170716
113	0x3f631106	0.8869785
114	0x3f126ff2	0.57202065
115	0xbecbeed6	-0.39830655
116	0xbdbc2f1c	-0.09188673
117	0xbf1904f2	-0.5977317
118	0xbec605ff	-0.3867645
119	0x3f4af485	0.7927936
120	0x3f496997	0.7867674
121	0x3f8284cc	1.0196776
122	0xbeb2c6d0	-0.34917307
123	0xbeedc6d5	-0.4644076
124	0x3f42346e	0.7586125
125	0x3e282328	0.16419661
126	0x3da407ff	0.08009338
127	0xbf64bfd7	-0.89355224
128	0x3db96f92	0.090544835
129	0xbeb7eda2	-0.35923487
130	0x3e8adebf	0.27123067
131	0x3f1f79b9	0.6229511
132	0x3f30ca5b	0.6905877
133	0xbf37dee3	-0.71824473
134	0xbe992535	-0.299112
135	0x3d09b7e2	0.03362263
136	0xbf1fad39	-0.6237369
137	0xbc7393e5	-0.014866804
138	0xbf2c3b47	-0.6727795
139	0x3edacca8	0.42734265
140	0xbf4b5212	-0.79422104
141	0xbf0cce0e	-0.55001915
142	0x3e1f388a	0.15548912
143	0xbf4e5aba	-0.8060719
144	0x3fa4e485	1.2882239
145	0x3d77e7f7	0.060523953
146	0x3f18b39f	0.5964908
147	0x3f36b600	0.7137146
148	0x3e82f223	0.2557536
149	0xbd8e459c	-0.06946871
150	0xbdfc5f19	-0.12322826
151	0xbd0dcad8	-0.034617275
152	0xbde4251a	-0.11139889
153	0xbee0a65a	-0.43876916
154	0xbf0bae8e	-0.54563224
155	0xbefb02fa	-0.49025708
156	0x3dba96f1	0.09110821
157	0x3ebe7cf4	0.37204707
158	0xbeab9a3f	-0.33516118
159	0xbf198f6e	-0.5998448
160	0x3f43e8c6	0.7652706
161	0x3d9e86d5	0.07740561
162	0x3e6f36b1	0.23360707
163	0xbf66fa60	-0.9022579
164	0xbf3ffab1	-0.749919
165	0x3f1ae0cf	0.6049928
166	0x3df06fa9	0.117400475
167	0xbd1548fe	-0.036446564
168	0xbee59eb7	-0.44847652
169	0xbe64c1c7	-0.22339545
170	0x3ce42d86	0.027853739
171	0x3de90ab5	0.11378995
172	0xbf4decea	-0.8043963
173	0xbe5486f1	-0.20754601
174	0x3e5deec6	0.21673116
175	0x3f71997a	0.9437481
176	0xbf1b2c83	-0.60614794
177	0xbee9ff93	-0.457028
178	0xbd72dc22	-0.059291966
179	0x3f8a8dec	1.0824561
180	0x3e79935e	0.24372622
181	0xbdbb6ce0	-0.09151626
182	0xbf133823	-0.5750753
183	0x3dda681f	0.10664391
184	0x3f33d3d9	0.7024513
185	0xbf43b25f	-0.7644405
186	0xbe91ab78	-0.28451133
187	0xbf5de2cc	-0.8667419
188	0x3f19b2c8	0.60038424
189	0xbf27d0f2	-0.655532
190	0xbf6be4d4	-0.9214604
191	0x3e0a20b9	0.13489045
192	0xbf0ef84f	-0.5584764
193	0xbe0de4ac	-0.13856763
194	0x3f1bc372	0.608451
195	0xbf2178af	-0.63074774
196	0x3e816b6c	0.2527727
197	0x3e50c505	0.20387657
198	0x3f3b7f5c	0.7324121
199	0xbef2499a	-0.4732178
200	0xbe33480a	-0.1750795
201	0xbf032da5	-0.51241523
202	0x3f56b447	0.8386883
203	0xbebce981	-0.368969
204	0x3d82caf9	0.0638637
205	0xbf2cc47a	-0.674873
206	0xbea08229	-0.31349304
207	0x3f1c2c01	0.61004645
208	0xbeaed5a2	-0.34147364
209	0x3f009907	0.502335
210	0x3e36b467	0.17842256
211	0x3f2d78bc	0.6776235
212	0xbe0791c7	-0.13239203
213	0x3ee3c481	0.44485858
214	0xbefe5cae	-0.49680084
215	0x3f07ca6e	0.5304326
216	0xbd6ead67	-0.058270838
217	0x3e87d8bd	0.26532546
218	0xbe6bc4bf	-0.23024271
219	0x3f24d3f4	0.64385915
220	0x3d9c8fd0	0.076446176
221	0x3dc02ffb	0.093841515
222	0xbe858b50	-0.2608285
223	0xbeed58b4	-0.46356738
224	0xbf3fdfc8	-0.7495084
225	0xbefa4307	-0.48879263
226	0x3f071b91	0.5277644
227	0x3e9007df	0.28131005
228	0x3eeff462	0.46866137
229	0x3db3a8fd	0.08772466
230	0x3f34bda8	0.7060189
231	0x3f149e40	0.5805397
232	0xbf4b1249	-0.79324776
233	0x3f6ccca2	0.92499745
234	0xbe472e96	-0.19451365
235	0xbf0552df	-0.52079576
236	0x3f0aa378	0.54155684
237	0xbe7ffc36	-0.24998555
238	0x3d915021	0.070953615
239	0x3f69d8fb	0.9134671
240	0xbf17904e	-0.59204566
241	0x3e26b7dc	0.16281074
242	0xbf48e921	-0.78480726
243	0xbf2cb9ad	-0.6747082
244	0x3f837ac9	1.0271846
245	0x3d93c2c3	0.07214882
246	0x3f1ed57c	0.620445
247	0xbf2db71f	-0.67857546
248	0x3f8c3ac6	1.0955436
249	0xbf7f15c0	-0.9964256
250	0xbf065641	-0.52475363
251	0x3f3c54a7	0.7356667
252	0xbec59fe7	-0.38598558
253	0xbf7340ae	-0.9502057
254	0x3ec92b5f	0.39290902
255	0x3f56f978	0.8397441

0.bias f4 [128]
0	0x3ea81098	0.3282516
1	0xbcdce0a8	-0.026962593
2	0x3eb23bc6	0.3481123
3	0x3e7aad3c	0.24480146
4	0x3f132b50	0.57487965
5	0x3e101c9b	0.14073412
6	0xbe5e4dd7	-0.21709381
7	0x3eeee853	0.46661624
8	0x3d548a17	0.051889505
9	0x3f1fb7c8	0.623898
10	0xbe826e23	-0.25474653
11	0xbf060ac6	-0.5236019
12	0x3ec18c97	0.37802574
13	0x3d893369	0.06699259
14	0x3e57187b	0.21005432
15	0xbd4f4c85	-0.050610084
16	0xbed58ab8	-0.41707397
17	0xbee85a15	-0.45381227
18	0xbe8deecb	-0.27721247
19	0x3eef3af9	0.4672468
20	0x3e90c9b1	0.28278878
21	0xbc91c2cc	-0.017793082
22	0xbf039e45	-0.51413375
23	0xbd4513c2	-0.048114546
24	0x3e5089f3	0.20365123
25	0x3e78d4ef	0.24299978
26	0x3db513cf	0.08841669
27	0xbe2b6804	-0.16738898
28	0xbf01005a	-0.5039116
29	0x3ee47887	0.44623205
30	0x3ec23510	0.37931108
31	0xbdbe0de1	-0.09279991
32	0x3ee876bd	0.4540309
33	0x3dcd8de4	0.10036829
34	0x3ea94918	0.3306358
35	0xbe3b7afc	-0.18308634
36	0x3eec7b7d	0.46187964
37	0x3e15ea27	0.14640103
38	0xbde0dd62	-0.109797254
39	0x3f14ac06	0.58074987
40	0x3e4a802a	0.19775453
41	0x3e2eaac5	0.17057331
42	0xbeb1f377	-0.3475606
43	0x3dbdcc62	0.092674986
44	0x3e632766	0.22182998
45	0x3f12feee	0.5742024
46	0x3f170680	0.58994293
47	0xbef52c44	-0.47885334
48	0xbdbae3cc	-0.0912548
49	0x3ecec7db	0.40386853
50	0xbe8c217e	-0.27369303
51	0xbd60619d	-0.05478059
52	0x3e4076da	0.18795338
53	0x3e06e8d9	0.13174762
54	0xbed9ed1a	-0.42563707
55	0x3e985f00	0.2975998
56	0x3dc011d2	0.09378399
57	0xbf1ae625	-0.6050742
58	0xbee842f5	-0.45363584
59	0x3e96b0f4	0.2943188
60	0x3eb5b9df	0.3549337
61	0x3dd46826	0.10371427
62	0x3e99dac2	0.3004971
63	0x3dbf7d5c	0.09350082
64	0xbef810b7	-0.48450252
65	0x3f01fdb8	0.5077777
66	0xbe19ed31	-0.15031888
67	0xbedb9b63	-0.42891988
68	0x3f20b81c	0.6278093
69	0xbe177c49	-0.14793505
70	0x3c5657ef	0.013082488
71	0x3ef12859	0.47101095
72	0x3b51a6cb	0.0031990285
73	0x3f1cc178	0.6123271
74	0x3e6c1307	0.23054133
75	0xbe8578e7	-0.26068804
76	0xbf14b2e4	-0.58085465
77	0xbb1317ac	-0.002244453
78	0x3f089bfe	0.53363025
79	0xbe9b139a	-0.30288392
80	0x3e8b5b47	0.27218077
81	0x3eaccaea	0.3374856
82	0xbd2d9ef3	-0.042387914
83	0xbe7eb3a7	-0.2487322
84	0xbefdee1c	-0.49595726
85	0xbf10aef0	-0.56516933
86	0x3eb423dd	0.35183612
87	0xbdb5c7d9	-0.088760085
88	0xbf01e0a8	-0.50733423
89	0x3d0c2487	0.034214523
90	0xbf19873e	-0.5997199
91	0xbe843041	-0.25818065
92	0x3e98801e	0.29785246
93	0x3e5b6e38	0.21428764
94	0x3eed7bef	0.46383616
95	0x3f24331d	0.6414049
96	0x3df2acce	0.11849366
97	0xbeb38af6	-0.35066956
98	0xbeb562d3	-0.3542696
99	0x3dee234e	0.116278276
100	0x3d02909b	0.031876188
101	0x3e30f662	0.17281488
102	0xbe8bce3e	-0.27305788
103	0xbf0ea15c	-0.55714965
104	0x3e89013d	0.26758757
105	0xbedc2b69	-0.4300187
106	0xbef57b4e	-0.47945637
107	0x3c548bcc	0.012972783
108	0xbebcc253	-0.36867008
109	0x3e631c26	0.22178707
110	0x3ef6b455	0.48184457
111	0x3e8f73f3	0.2801815
112	0xbed26964	-0.41096032
113	0xbe8b3665	-0.27189937
114	0x3e74262e	0.2384269
115	0x3f012108	0.50441027
116	0x3d61c6c1	0.055121187
117	0x3dd83573	0.1055707
118	0x3de92d4e	0.11385594
119	0xbe0ac5f3	-0.13552074
120	0xbe1f838b	-0.15577523
121	0xbe3649ec	-0.17801636
122	0xbe048592	-0.12941578
123	0xbe4de7bc	-0.20107931
124	0xbe3e10a3	-0.18561034
125	0xbe513988	-0.20432103
126	0x3e4d043a	0.20021144
127	0x3ebc59fd	0.36787406

2.weight f4 [128, 128]
0	0xbbee8ee3	-0.007280217
1	0xbd235097	-0.03987178
2	0xbd6537d1	-0.055961434
3	0x3cca7744	0.024715073
4	0xbd1e2940	-0.038613558
5	0x3d396d27	0.04527011
6	0xbc3ec240	-0.0116429925
7	0x3d5b8baa	0.05359999
8	0xbc96da57	-0.01841466
9	0x3d5f4b83	0.054515373
10	0x3dc1d29b	0.09463998
11	0x3c946fd9	0.01811974
12	0xbd2ab517	-0.041676607
13	0xbd0ba47a	-0.034092404
14	0xbca3eebf	-0.020011304
15	0xbe45a948	-0.19302857
16	0xbc2237b8	-0.00990098
17	0x3cc89059	0.024482893
18	0xbdd258a1	-0.10270811
19	0x3d99a017	0.07501238
20	0x3ac57083	0.0015063438
21	0xbde9ab89	-0.11409671
22	0x3d814686	0.063122794
23	0xbd3c95f6	-0.04604145
24	0xbc4c7e2f	-0.012481256
25	0xbda02b61	-0.07820774
26	0x3d3fec4c	0.04685621
27	0x3dcea40a	0.10089882
28	0xbd066a7b	-0.03281639
29	0xbd1b9cc6	-0.037991308
30	0x3d34264e	0.043981843
31	0x3ca35756	0.019939106
32	0xbd1e9b91	-0.03872258
33	0xbd9c0716	-0.07618539
34	0x3d1ff872	0.039055295
35	0xbd980f3e	-0.07424782
36	0xbd89f36d	-0.06735883
37	0xbdc13c71	-0.094353564
38	0xbc429324	-0.011875901
39	0x3d5a511f	0.05330002
40	0x3c47ae31	0.012187527
41	0xbdd1c2d1	-0.102422364
42	0xbd5ec47a	-0.054386593
43	0xbd0ea335	-0.034823615
44	0xbd20e7ae	-0.039283447
45	0x3d9bacd7	0.07601326
46	0x3d62bf3e	0.055358164
47	0x3d28ca9b	0.041208845
48	0x3c9e5d4f	0.019331602
49	0x3bbf9f06	0.0058478145
50	0x3c9d1001	0.01917267
51	0xbe64bcb6	-0.22337613
52	0xbcb97428	-0.022638395
53	0x3e1a9dbb	0.15099232
54	0xbcce33f6	-0.025171261
55	0xbcb1219e	-0.021622475
56	0x3d49f69a	0.049307443
57	0xbd9eb6b5	-0.07749692
58	0x3dbe9265	0.09305266
59	0x3dabd37b	0.08389946
60	0x3e11d6d9	0.14242114
61	0xbccf50cf	-0.025307087
62	0x3d8037ca	0.06260641
63	0xbd1b1edf	-0.037871238
64	0xbd8ee67a	-0.06977554
65	0x3d7dcccf	0.0619629
66	0xbd7a43c2	-0.061099775
67	0x3c871a13	0.016491925
68	0x3cb84065	0.022491643
69	0x3e08b109	0.13348784
70	0xbd927fd4	-0.071532875
71	0x3c54c482	0.012986304
72	0x3d4a0687	0.04932263
73	0x3d31fddd	0.043454994
74	0xbd358e3c	-0.0443251
75	0x3d48f14c	0.049058244
76	0xbcf3e48e	-0.02977207
77	0xbbebac69	-0.0071921838
78	0x3dc7fe08	0.097652495
79	0xbd72813a	-0.05920527
80	0x3d6fc964	0.05854167
81	0xbdc92fca	-0.09823568
82	0xbd5e081d	-0.054206956
83	0xbd3837ac	-0.044974968
84	0x3d2c850a	0.042119063
85	0xbca04e42	-0.019568566
86	0x3d099baf	0.033595737
87	0x3d72864a	0.0592101
88	0x3e0bacde	0.13640162
89	0x3d7b5149	0.061356816
90	0xbd7b9a55	-0.06142648
91	0xbdc632d5	-0.09677664
92	0xbd6102a7	-0.05493417
93	0x3c48613f	0.0122302165
94	0xbd1210a8	-0.035660416
95	0x3d09e2ae	0.033663444
96	0x3d9fb28e	0.077977285
97	0x3d8eba31	0.06969107
98	0xbd97bdeb	-0.07409271
99	0xbe13daa8	-0.1443888
100	0xbdcd1716	-0.10014169
101	0xbdb50652	-0.08839096
102	0xbdfad693	-0.12247958
103	0x3cdd6f10	0.027030498
104	0x3d929522	0.07157351
105	0x3d9368b2	0.071977034
106	0x3cc4d9e5	0.024029681
107	0x3c23b172	0.009991037
108	0x3b52d7cb	0.003217208
109	0x3e097f73	0.13427524
110	0x3df21703	0.118207954
111	0xbd86f398	-0.065894306
112	0x3db4263d	0.08796356
113	0x3b67c750	0.0035366602
114	0x3d2849e5	0.041086096
115	0x3df5d654	0.120037705
116	0x3dcd1137	0.10013049
117	0xbcc45a3a	-0.023968805
118	0xbd98ffc3	-0.07470658
119	0xbc04b416	-0.008099576
120	0xbd94f6b8	-0.0727362
121	0x3dc8574b	0.09782275
122	0xbe421c48	-0.18956101
123	0xbe16e0f8	-0.14734256
124	0xbea023df	-0.31277367
125	0x3da809de	0.08205007
126	0xbd50c415	-0.05096825
127	0x3d6236e5	0.055228133
128	0x3d05bb2c	0.032649204
129	0x3d3dfcd3	0.04638369
130	0x3d8fd986	0.07023911
131	0xbd4f7139	-0.050645087
132	0xbbbd9ac1	-0.0057862704
133	0xbddc186a	-0.10746844
134	0x3d4b1036	0.049576007
135	0xbd57a1c4	-0.052644506
136	0x3d2bc99e	0.041940324
137	0x3c19ede6	0.009395098
138	0x3d98a9ab	0.074542366
139	0xbc8852aa	-0.01664098
140	0x3cac9455	0.021066824
141	0x3cf492be	0.029855128
142	0xbd33e1c4	-0.04391648
143	0xbde4d100	-0.11172676
144	0xbc285433	-0.010273981
145	0xbe049ebf	-0.12951182
146	0xbc9c27ed	-0.019062007
147	0xbd699086	-0.057022594
148	0x3aae6b7a	0.0013307177
149	0x3c41384e	0.011793209
150	0x3ca2893f	0.019840835
151	0xbe20efa5	-0.15716417
152	0xbd1eb11c	-0.038743123
153	0xbd0919dc	-0.033471927
154	0xbd822947	-0.06355529
155	0xbcd4fe56	-0.026000183
156	0xbd702317	-0.058627214
157	0xbd59ed48	-0.053204805
158	0xbc9a391a	-0.018826056
159	0xbd1003ee	-0.035159998
160	0xbdaaa649	-0.083324976
161	0xbcde846d	-0.027162755
162	0x3c589cfc	0.013221022
163	0xbda8cd31	-0.08242262
164	0x3c250469	0.010071852
165	0xbd24e196	-0.040254198
166	0xbc71562c	-0.014730018
167	0x3d8a8774	0.06764117
168	0x3d28e656	0.04123529
169	0xbdc6b0ec	-0.09701714
170	0x3dd12c00	0.102134705
171	0xbdd75910	-0.10515034
172	0xba48a64d	-0.0007654175
173	0x3cd4d448	0.02598013
174	0xbb5f0ce0	-0.0034034774
175	0xbc9adddd	-0.01890462
176	0x3d9db765	0.07700995
177	0xbd336812	-0.04380042
178	0x3d8ed9f8	0.06975168
179	0xbc49304e	-0.012279583
180	0x3d2c8f6c	0.042128965
181	0xbd655cbf	-0.055996653
182	0x3d1ba356	0.037997566
183	0xbdb1fcff	-0.08690833
184	0x3cc06786	0.023486864
185	0xbd8cc916	-0.068742916
186	0xbd2ab0f2	-0.041672654
187	0x3c9a3b97	0.018827243
188	0x3cdff864	0.027340122
189	0xbc8a66f4	-0.016894795
190	0xbcbf2908	-0.023334995
191	0xbed53ad7	-0.41646454
192	0x3c99aa2e	0.018757906
193	0xbc439149	-0.011936494
194	0xbf02c0df	-0.5107555
195	0xbd15e4d4	-0.03659518
196	0xbdb222a0	-0.086980104
197	0x3d1ea4e7	0.038731482
198	0xbdfdbe1f	-0.12389778
199	0x3d9227c7	0.07136493
200	0x3d0d7c09	0.034542117
201	0xbae9c722	-0.0017835835
202	0x3d840d71	0.06447876
203	0xbd4b32a8	-0.049608856
204	0xbd955eab	-0.07293447
205	0x3ce53c86	0.027982961
206	0xbd2347b1	-0.039863292
207	0xbd8dfc82	-0.06932928
208	0xbc911fd6	-0.017715376
209	0xbad2a880	-0.0016071945
210	0x3b48721d	0.0030585595
211	0x3c3739a1	0.011183173
212	0xbda06fa7	-0.07833796
213	0x3d472665	0.0486206
214	0x3d43951a	0.047749616
215	0xbde553da	-0.11197634
216	0x38bded10	9.0563786e-05
217	0xbb3fdef9	-0.002927719
218	0x3c432e77	0.011912934
219	0xbd5e635e	-0.054293983
220	0x3da54ea7	0.08071642
221	0xbc4052a7	-0.011738456
222	0x3d7270cf	0.059189614
223	0x3d84344d	0.06455288
224	0xbd39236f	-0.045199808
225	0x3c6a53ec	0.014302235
226	0xbc52e9d0	-0.012873128
227	0xbd855412	-0.06510176
228	0xbda155e2	-0.07877709
229	0xbd2c9f06	-0.042143844
230	0xbcac5f99	-0.021041678
231	0x3daadc94	0.08342853
232	0xbd2cca1e	-0.04218494
233	0x3d5da5a6	0.054113053
234	0xbce2c4d9	-0.027681755
235	0xbdc71209	-0.09720237
236	0xbcd6c7b7	-0.026218278
237	0x3d40cc92	0.047070093
238	0xbda09090	-0.07840073
239	0x3d0fd6b5	0.03511687
240	0x3c91618a	0.017746706
241	0xbdf3e2eb	-0.119085155
242	0xbcea1a20	-0.02857691
243	0xbc98e3b2	-0.018663261
244	0xbddd0c5e	-0.107933745
245	0xbe0418f1	-0.1290014
246	0x3c92ca5c	0.017918758
247	0xbd52b260	-0.051439643
248	0x3e0d5a1f	0.1380391
249	0xbd949db2	-0.072566405
250	0xbdda68f3	-0.10664549
251	0xbca42c7a	-0.02004074
252	0xbe7c4af4	-0.24637967
253	0x3d639fba	0.05557225
254	0xbd72009c	-0.059082612
255	0x3d5d872d	0.05408399

2.bias f4 [128]
0	0x3dbdffbd	0.09277294
1	0x3c86959b	0.01642876
2	0xbd65331f	-0.055956956
3	0x3d1dae10	0.038496077
4	0x3d932008	0.07183844
5	0x3d908702	0.07057001
6	0xbc9f1a0d	-0.019421602
7	0x3d3cdd40	0.046109438
8	0xbaaddf18	-0.001326534
9	0x3d2578fc	0.040398583
10	0x3cb22948	0.0217482
11	0x3d1050cc	0.035233304
12	0xbc9f99be	-0.01948249
13	0x3cee9be3	0.029127067
14	0x3d393b46	0.045222543
15	0xbd265e8c	-0.04061751
16	0x3c25185f	0.010076611
17	0xbd3febe9	-0.04685584
18	0x3d33c692	0.043890543
19	0xbd92068f	-0.07130157
20	0xbd63f894	-0.055656984
21	0x3da6764b	0.08128031
22	0xbcfc2b28	-0.030782297
23	0x3d0ba588	0.03409341
24	0xbd6059c3	-0.054773103
25	0x3cdf34fb	0.027246943
26	0x3d5db88f	0.054131087
27	0xbca4a969	-0.020100312
28	0x3dba752f	0.09104382
29	0x3afcb956	0.0019281309
30	0x3d1384ab	0.036015194
31	0xbcee4ded	-0.029089892
32	0xbd8ee334	-0.06976929
33	0x3d29ea8a	0.04148344
34	0x3d32a016	0.0436097
35	0x3d37f205	0.044908542
36	0xbc17daff	-0.009268521
37	0xbd973264	-0.07382658
38	0xbcd6e46c	-0.026231967
39	0x3c806bbc	0.015676372
40	0xbd7d2d60	-0.06181085
41	0x3d8d7cf8	0.069086015
42	0xbd138832	-0.036018558
43	0x3c336ff0	0.010951981
44	0x3d26e802	0.040748604
45	0xbd268b31	-0.040660087
46	0x3da8691b	0.08223172
47	0xbd0b0048	-0.033935815
48	0x3d36e746	0.044654153
49	0x3ca665af	0.020312158
50	0xbd8075fe	-0.06272505
51	0xbd28fb9e	-0.041255586
52	0x3d81428d	0.06311522
53	0x3c9ef387	0.019403232
54	0xbc2192ac	-0.009861629
55	0x3cec4bff	0.028844832
56	0xbcc9db8a	-0.024640817
57	0x3cc3a0df	0.02388042
58	0x3d9af362	0.07565953
59	0x3c5a1093	0.013309616
60	0xbccaa631	-0.02473745
61	0x3caae047	0.020858897
62	0xbcf866bc	-0.030322425
63	0xbd8080e2	-0.062745824
64	0x3d06bf58	0.032897323
65	0xbc02a067	-0.007972813
66	0x3d22bd8e	0.039731555
67	0x3d37d04a	0.044876374
68	0xbd82af87	-0.063811354
69	0x3c172114	0.009224195
70	0x3d9bdd67	0.076105885
71	0xbce25492	-0.027628217
72	0x3c1c3ce7	0.009536005
73	0x3c0a598e	0.008444203
74	0xbd8d18a9	-0.06889469
75	0xbc8b22a7	-0.016984297
76	0xbd2aa216	-0.041658483
77	0x3becd593	0.0072276085
78	0xbd92270e	-0.07136355
79	0x3d66a4e9	0.056309614
80	0x3b8b7d09	0.0042568487
81	0x3ca541a7	0.020172907
82	0xbd8f4384	-0.069952995
83	0xbc9ca7cc	-0.01912298
84	0xbd19913e	-0.03749203
85	0xbd75f3be	-0.060046904
86	0x3d3aef35	0.04563828
87	0xbd0f7765	-0.035025973
88	0x3c9f0950	0.01941362
89	0xbc3ef0ab	-0.011654059
90	0xbca3f238	-0.02001296
91	0xbd8ebba7	-0.069693856
92	0x3d7babdd	0.0614432
93	0xba728527	-0.00092514086
94	0xbd93855d	-0.072031714
95	0x3d87132c	0.065954536
96	0xbc06c08c	-0.008224618
97	0x3d35e459	0.044407222
98	0xbd455728	-0.04817882
99	0x3da2aa33	0.07942619
100	0xbb13114c	-0.002244073
101	0xbd2adddb	-0.041715484
102	0x3cef5646	0.029215943
103	0xbcc94cfe	-0.024572846
104	0xbcfd8821	-0.0309487
105	0xbd025bee	-0.031825952
106	0x3d6df843	0.05809809
107	0x3b2d5b69	0.002645219
108	0x3c7e2369	0.015511372
109	0xbd8af84d	-0.06785641
110	0x3cacf883	0.021114593
111	0xbc6533ce	-0.013989402
112	0xbd97af3e	-0.07406472
113	0xbcbb4a74	-0.02286265
114	0xbb4d6be9	-0.0031344837
115	0x3c96ca58	0.018407032
116	0xbca457cd	-0.020061398
117	0x3dd0449e	0.10169338
118	0x3d8bbb39	0.06822819
119	0xbc27fc64	-0.010253046
120	0x3d37a0c1	0.04483104
121	0xbdb273a2	-0.087134615
122	0xbd2ba7f5	-0.041908223
123	0x3db5ed79	0.08883185
124	0x3d85e1d2	0.065372124
125	0xbc63a038	-0.01389318
126	0xbdc7dd57	-0.09759014
127	0x3bc4e99a	0.006009293

4.weight f4 [128, 128]
0	0xbaa1db15	-0.0012348617
1	0xbd980dd8	-0.074245155
2	0x3d1f463c	0.03888534
3	0xbc4e8567	-0.012605048
4	0x3d7091cb	0.05873279
5	0x3cfa648e	0.030565526
6	0x3c42692c	0.011865895
7	0xbba2232f	-0.004948042
8	0x3d712719	0.058875177
9	0x3cad1d80	0.02113223
10	0xbbb9e69d	-0.005673243
11	0xbd73589f	-0.059410688
12	0x3d85bbb7	0.065299444
13	0x3d94bc37	0.07262462
14	0xba020a97	-0.00049606845
15	0xbc86f91a	-0.016476203
16	0x3d471daa	0.048612274
17	0xbc1f5a3d	-0.009726104
18	0xbd799e71	-0.060942117
19	0x3d3f2870	0.046669424
20	0xbc87f819	-0.016597794
21	0xbc8e5a25	-0.017376969
22	0x3d954b74	0.07289782
23	0x3c7584e6	0.014985299
24	0xbd070269	-0.032961283
25	0x3d218087	0.039429214
26	0xbd3a65ce	-0.045507245
27	0xbd05ecca	-0.032696523
28	0xbccba39b	-0.024858287
29	0xbcc480a8	-0.02398713
30	0xbd889b9b	-0.066703044
31	0xbd490c4b	-0.04908399
32	0xbc903c37	-0.017606838
33	0xbca3f2d9	-0.02001326
34	0x3afd9ab2	0.0019348471
35	0x3c8879f6	0.016659718
36	0xbd22039c	-0.039554223
37	0x3c930bc4	0.017949946
38	0x3d8fe6c6	0.070264384
39	0xbcdafbaf	-0.02673134
40	0xbd776339	-0.06039736
41	0xbd84cb7d	-0.06484125
42	0xbc8fb043	-0.017540103
43	0xbd09f4f5	-0.033680875
44	0x3ceccc88	0.028906122
45	0x3d6192a9	0.055071507
46	0x3d3090c9	0.043106828
47	0xbd38bd30	-0.0451023
48	0x3d06bcce	0.032894902
49	0x3d65205e	0.05593907
50	0xbcddef3c	-0.027091615
51	0x3ca7a14d	0.020462656
52	0x3d9955aa	0.07487042
53	0xbd56419c	-0.052308664
54	0x3b25a625	0.0025276032
55	0x3d2f791a	0.0428401
56	0x3d82bee5	0.063840665
57	0xbcd4a65b	-0.02595823
58	0xbc9a88ae	-0.018864002
59	0x3cd506b3	0.026004171
60	0x3d7ea29e	0.062166803
61	0xbd565db0	-0.05233544
62	0x3ccf6732	0.025317762
63	0xbcaa5689	-0.020793216
64	0xbd9a0fa9	-0.07522518
65	0x3ccc32d5	0.024926582
66	0xbd30a25e	-0.043123595
67	0xbd30c5e1	-0.043157462
68	0x3c48a6b1	0.012246774
69	0x3d69f0a7	0.05711427
70	0xbd23fb80	-0.04003477
71	0x3b84b348	0.0040496923
72	0x3ce839b2	0.028347824
73	0x3d7a9005	0.061172504
74	0xbd6250e8	-0.05525294
75	0xbcd04d6f	-0.025427548
76	0x3becd69c	0.007227732
77	0xbc3353be	-0.010945259
78	0xbd43122c	-0.047624752
79	0xbcd79fff	-0.02632141
80	0xbd578f0b	-0.05262665
81	0xbce179ca	-0.027523894
82	0xbd35f123	-0.04441942
83	0xbd586207	-0.05282786
84	0x3d94aad1	0.07259143
85	0xbd4dbae9	-0.05022708
86	0xbd9ad7b8	-0.07560676
87	0x3d74aac9	0.059733186
88	0xbd3fa651	-0.04678947
89	0x3cdf3153	0.0272452
90	0x3cd58dd0	0.026068598
91	0xbd9a1371	-0.075232394
92	0xbd679995	-0.05654295
93	0xbbae0ad9	-0.0053113517
94	0xbcf9868c	-0.030459665
95	0x3cba67d0	0.02275458
96	0xbc02b381	-0.007977367
97	0xbd1207fb	-0.035652142
98	0x3c8a5596	0.016886514
99	0x3d81af74	0.06332293
100	0xbcca303d	-0.024681205
101	0x3c475259	0.012165629
102	0x3d11a477	0.035557237
103	0xbcd00e2c	-0.025397383
104	0xbc70f9b6	-0.014707973
105	0xbccbbdd3	-0.024870789
106	0x3d74783b	0.059684973
107	0x3d7b7715	0.061392862
108	0xbd4917cd	-0.049094964
109	0x3d8761e0	0.06610465
110	0xbd88b2fc	-0.066747636
111	0xbc08e491	-0.008355276
112	0xbd611b9f	-0.054957982
113	0x3c094afc	0.008379694
114	0xbd5bda2e	-0.05367487
115	0xbd95e3f1	-0.07318867
116	0xbd205952	-0.039147682
117	0xbcdef6e8	-0.027217343
118	0xbc0e0579	-0.008668297
119	0xbd4e754c	-0.05040483
120	0xbd4302a4	-0.04760994
121	0x3d5b680e	0.05356603
122	0x3d3cc51f	0.046086427
123	0x3d469244	0.048479334
124	0x3abf9211	0.0014615675
125	0x3d2eaadc	0.042643413
126	0x3d7546b5	0.059881885
127	0xbd22cc2d	-0.0397455
128	0xbe1d29cf	-0.1534798
129	0x3c6361e1	0.013878317
130	0x3bf955e2	0.007609115
131	0x3cbac56b	0.022799214
132	0xbcab1192	-0.020882402
133	0xbdde5c0e	-0.10857402
134	0x3e021662	0.12703851
135	0xbd5fced8	-0.05464062
136	0xbb093e3f	-0.0020941643
137	0xbc9bb3c0	-0.01900661
138	0x3bd42135	0.006473685
139	0x3b31c418	0.0027124938
140	0xbd0139ca	-0.031549253
141	0xbdc60d0e	-0.09670459
142	0x3d99d005	0.0751038
143	0xbe0d91ec	-0.13825196
144	0x3c789050	0.0151711255
145	0xb8949ca8	-7.0863694e-05
146	0xbe3b9b3d	-0.18320937
147	0x3c96419e	0.018341836
148	0x3cf04e6c	0.02933427
149	0x3d4e81fe	0.05041694
150	0xbe038d6b	-0.12846915
151	0xbd17a2b8	-0.037020415
152	0x3ca17b66	0.019712161
153	0x3d9e98a7	0.0774396
154	0xbcee2d26	-0.029074263
155	0x3d44ca6c	0.048044607
156	0xbea7e6af	-0.32793185
157	0xbe400385	-0.18751343
158	0x3e07dc63	0.13267665
159	0xbe3074cd	-0.17232056
160	0xbda43fdd	-0.080199935
161	0xbd1944b7	-0.037419047
162	0xbc893670	-0.01674959
163	0x3d8de63f	0.069286816
164	0x3d66065f	0.05615842
165	0xbd38423f	-0.044985052
166	0xbe04430e	-0.12916204
167	0xbd96a6a9	-0.07356007
168	0x3d8e4be0	0.06948066
169	0x3cef2dd4	0.029196657
170	0xbd4dbc5b	-0.050228458
171	0x3d8fa8f4	0.07014647
172	0xbda7b354	-0.08188501
173	0xbd33957c	-0.04384373
174	0xbec89585	-0.39176574
175	0xbe60932b	-0.2193114
176	0xbe2b31eb	-0.16718261
177	0x3d93d52a	0.07218392
178	0xbdfbfe42	-0.12304355
179	0xbcb6240c	-0.022233985
180	0x3bc9e4b0	0.006161295
181	0x3cef7f38	0.029235467
182	0xbdbd19e7	-0.09233456
183	0x3d1ec256	0.038759552
184	0x3d2e5ef1	0.042571012
185	0xba813814	-0.0009858632
186	0xbce585ae	-0.028017845
187	0x3afe5a54	0.0019405582
188	0xbe858a67	-0.26082155
189	0xbceb4035	-0.02871714
190	0x3d91ef91	0.07125772
191	0xbda7fc81	-0.08202458
192	0xbc94d1e0	-0.018166482
193	0x3d4efc8e	0.050533824
194	0x3dba58fc	0.09099004
195	0x3d1271b6	0.035752974
196	0xbd215819	-0.039390657
197	0xbda729bd	-0.08162258
198	0xbdc33caa	-0.09533055
199	0x3daa2ece	0.083097085
200	0xbd234bac	-0.03986709
201	0x3c0c8737	0.00857716
202	0xbd923ea1	-0.07140852
203	0xbcf614b0	-0.030039161
204	0x3c298808	0.010347374
205	0xbc2a008e	-0.010376109
206	0xbddb2b45	-0.107016124
207	0xbc290c64	-0.010317896
208	0x3d98af47	0.074553065
209	0xbde3af97	-0.111174755
210	0xbe9b5a8f	-0.30342528
211	0x3ca9fb5c	0.02074974
212	0x3d6c5d63	0.057706248
213	0xbadf109e	-0.0017018502
214	0xbdd58a4d	-0.104267694
215	0xbdf0971a	-0.1174757
216	0xbb29714a	-0.002585488
217	0x3d0af291	0.033922736
218	0x3d9e9c1f	0.077446215
219	0xbc661811	-0.014043824
220	0x3d757cad	0.059933353
221	0xbc8e3695	-0.017360011
222	0x3da380b4	0.079835325
223	0x3d14082d	0.03614061
224	0xbd51d4eb	-0.051228445
225	0x3d68385b	0.05669437
226	0xbe5cbdc8	-0.21556771
227	0x3d5be012	0.053680487
228	0x3c6f4232	0.014603185
229	0xbd11aef3	-0.035567235
230	0x3d962bc3	0.07332566
231	0x3da88707	0.082288794
232	0xbebb5a06	-0.3659212
233	0x3d49cab0	0.049265563
234	0xbc2a49ea	-0.010393599
235	0xbcb9e17b	-0.022690525
236	0x3d77c36d	0.060489107
237	0x3d24f6e5	0.04027452
238	0x3ce183b6	0.027528625
239	0xbd73d163	-0.05952586
240	0x3d3d5f20	0.046233296
241	0xbbb5a49b	-0.005543304
242	0x3b257137	0.0025244483
243	0x3d53830f	0.05163866
244	0xbd620e34	-0.055189326
245	0x3cb49058	0.022041485
246	0xbd20bf73	-0.03924508
247	0x3d002bf0	0.031291902
248	0x3cd60309	0.026124494
249	0x3de55f9f	0.11199879
250	0x3db76972	0.08955659
251	0xbdadd127	-0.08487158
252	0x3d30c3b3	0.043155383
253	0xbca66836	-0.020313364
254	0x3dbd5473	0.09244623
255	0xbc71ee99	-0.014766359

4.bias f4 [128]
0	0xbd824c3c	-0.06362197
1	0xbd7e698d	-0.06211238
2	0xbce8c705	-0.028415212
3	0x3de152c3	0.11002114
4	0x3d8fcf03	0.07021906
5	0xbd1252c1	-0.03572345
6	0x3ca6ec3c	0.020376317
7	0xbd4a4f73	-0.049392175
8	0x3d1ea3d8	0.038730472
9	0xbcbe2a9d	-0.023213679
10	0xbd3c7f9a	-0.046020128
11	0xbaaf1c8f	-0.0013359952
12	0xbdbcbeb7	-0.092160635
13	0xbd2ed1e9	-0.042680655
14	0x3d3db297	0.046312895
15	0x3d902f2f	0.070402496
16	0x3dbce13e	0.09222649
17	0x3c9b1c60	0.018934429
18	0xbd8fa4b2	-0.07013835
19	0xbd26d093	-0.040726256
20	0xbc43cca6	-0.011950647
21	0xbcdbea62	-0.02684516
22	0xbd5dce56	-0.054151855
23	0x3d3becc0	0.04588008
24	0xbdc69ffa	-0.09698482
25	0xbc2740f4	-0.010208357
26	0x3d8df7a9	0.06932003
27	0x3d97b83c	0.07408187
28	0x3d8e9333	0.0696167
29	0x3ce5ba18	0.028042838
30	0xbd2de8cb	-0.042458337
31	0x3dba2da5	0.09090737
32	0xbd87d674	-0.066327006
33	0xbd381ad7	-0.04494747
34	0xbcab6c79	-0.020925747
35	0xbc5a06a4	-0.013307247
36	0x3d6d8b7c	0.05799435
37	0x3d69b10f	0.05705362
38	0x3d31b6b4	0.04338713
39	0x3cd0c936	0.02548657
40	0xbcaa5b57	-0.020795507
41	0xbd735c8d	-0.059414435
42	0x3dc35a82	0.09538747
43	0x3d7bd5a1	0.06148303
44	0x3bfd3cf3	0.007728213
45	0xbce3edd1	-0.02782336
46	0x3d2bd6a6	0.04195275
47	0xbc5cb061	-0.013469786
48	0xbc10aad3	-0.00882979
49	0x3dabb795	0.08384625
50	0x3d342105	0.043976802
51	0x3d6e923d	0.058244932
52	0xbdaf0379	-0.08545584
53	0x3d9828f1	0.07429684
54	0x3d53bb62	0.051692374
55	0xbceab6e2	-0.028651658
56	0xbac831c6	-0.0015273623
57	0x3baf84eb	0.005356421
58	0x3cb42c51	0.021993788
59	0x3c309932	0.010778712
60	0x3d059d98	0.032620996
61	0xbd5b8f6f	-0.053603586
62	0x3dbda095	0.09259144
63	0xbd1397a8	-0.036033303
64	0x3d71f86d	0.059074808
65	0xbc788676	-0.015168777
66	0xbd696d9f	-0.05698931
67	0x3d189bf5	0.037258107
68	0x3da1fae4	0.07909182
69	0xbc708d45	-0.014682119
70	0x3d6821d9	0.056672905
71	0xbd04a273	-0.032381486
72	0xbc55eadc	-0.013056483
73	0xbd97fa78	-0.0742082
74	0xbd66da6e	-0.056360655
75	0x3d2fc5b4	0.042913154
76	0xbd3527de	-0.044227473
77	0xbd9dfd06	-0.07714276
78	0x3cede1c0	0.02903831
79	0x3d41c5e4	0.047307864
80	0x3cfc8656	0.030825775
81	0x3d7698e2	0.060204394
82	0xbcd56848	-0.026050702
83	0x3bb4444d	0.005501306
84	0x3c4606ae	0.0120865535
85	0x3dd8baef	0.1058253
86	0x39f706db	0.0004711662
87	0xbc082868	-0.008310415
88	0x3cca063e	0.02466118
89	0x3c946474	0.018114306
90	0x3bde899f	0.006791308
91	0x3dc06067	0.09393387
92	0xbd7c547f	-0.06160402
93	0xbd84ed9b	-0.06490632
94	0x3d2c4840	0.04206109
95	0xbd8b9100	-0.06814766
96	0xbd94aa9b	-0.07259103
97	0xbdb81387	-0.089880995
98	0x3b8e0680	0.004334271
99	0x3db41344	0.08792737
100	0x3d6a3766	0.05718174
101	0xbb78068c	-0.00378457
102	0xbd1d59df	-0.038415786
103	0x3c5618de	0.013067452
104	0xbd9de615	-0.077099
105	0x3d39c13a	0.04535029
106	0x3c652be1	0.013987512
107	0x3d0809c6	0.033212446
108	0xbd69bf2d	-0.057067085
109	0x3c038bf7	0.008028976
110	0x3ca3b9b6	0.019986015
111	0x3d3c0e3e	0.04591202
112	0xbd847383	-0.064673446
113	0x3d5fbba2	0.0546223
114	0x3dcc402c	0.09973177
115	0xbc97c8a4	-0.01852829
116	0x3d2c2d62	0.042035468
117	0x3d3aedcf	0.04563695
118	0xbd33d228	-0.043901592
119	0x3d35cc78	0.04438445
120	0x3c2aaa0b	0.010416518
121	0xbba58b33	-0.005051994
122	0x3da5bf7c	0.08093163
123	0xbc2ccc79	-0.010546797
124	0x3da78056	0.08178775
125	0xbd4355ec	-0.047689363
126	0x38c362a7	9.3167e-05
127	0x3bba489f	0.0056849266

6.weight f4 [2, 128]
0	0x3d0f07c4	0.034919515
1	0xbd28bff3	-0.041198682
2	0x3cf134b4	0.029444076
3	0xbd03aa75	-0.032144982
4	0xbc2d4c4c	-0.010577273
5	0x3e4d0ac6	0.20023641
6	0x3db49269	0.08816988
7	0xbe44df4b	-0.19225805
8	0x3c09e9d9	0.00841757
9	0x3e3d5d82	0.18492702
10	0xbe914b4b	-0.28377756
11	0xbe460f17	-0.19341694
12	0x3c4a9349	0.012364217
13	0x3e50b8cf	0.20382999
14	0xbe049ac2	-0.1294966
15	0xbd54671a	-0.051856138
16	0xbe006d88	-0.12541783
17	0xbe470cad	-0.19438429
18	0xbe6d46ba	-0.23171511
19	0xbdca7712	-0.09885992
20	0xbe741e90	-0.23839784
21	0x3ea8c327	0.3296139
22	0xbea892ed	-0.32924595
23	0x3dcaca0f	0.09901821
24	0xbd5fdf00	-0.05465603
25	0xbcfc5cce	-0.030805971
26	0xbd79fca2	-0.061031945
27	0xbcfa7826	-0.03057487
28	0x3c57daaa	0.013174692
29	0x3ccc0093	0.024902618
30	0x3d72f4e0	0.059315562
31	0x3dad0010	0.084472775
32	0x3d34902a	0.044082798
33	0x3d5bd9d3	0.05367453
34	0x3dc47aca	0.09593733
35	0xbdd9f400	-0.106422424
36	0x3e29bfca	0.16577068
37	0xbdddcff5	-0.1083068
38	0x3dd92b27	0.10603934
39	0x3d8154d2	0.06315006
40	0x3deadb7b	0.11467644
41	0xbbbd90b6	-0.005785073
42	0xbdfc8fd9	-0.12332124
43	0x3d3736cf	0.044730004
44	0x3dcd20dd	0.10016034
45	0xbca0a44d	-0.019609595
46	0x3df7ad9c	0.1209366
47	0x3dca8b13	0.098898076
48	0x3e451c69	0.19249119
49	0x3d440e58	0.04786524
50	0xbe49ce15	-0.1970752
51	0xbe19ad8e	-0.15007612
52	0xbeb0927e	-0.34486765
53	0x3d98f903	0.0746937
54	0x3d0cc4f2	0.03436751
55	0x3dbf24a9	0.09333164
56	0xbd0dc0f1	-0.03460783
57	0x3deda269	0.11603243
58	0xbe307197	-0.17230831
59	0x3da05f5e	0.0783069
60	0x3beb52ef	0.0071815173
61	0x3d0d13ec	0.034442827
62	0x3e074300	0.13209152
63	0xbe7ffc72	-0.24998644
64	0x3d4f6134	0.05062981
65	0xbdc8ac96	-0.09798543
66	0xbd701e86	-0.05862286
67	0x3d40f7bf	0.04711127
68	0xbc0e1bc9	-0.008673617
69	0x3e920e07	0.28526327
70	0xbdf665d1	-0.12031139
71	0x3c9264b8	0.017870292
72	0xbcb416bb	-0.021983495
73	0xbe2cc62e	-0.16872475
74	0x3e012ddd	0.12615152
75	0xbe523c0c	-0.20530719
76	0x3b9907e2	0.004670129
77	0x3d8ddea9	0.06927235
78	0x3de8d165	0.11368064
79	0x3dc24095	0.09484974
80	0xbc091a74	-0.008368123
81	0xbe0372d6	-0.12836775
82	0x3d244834	0.04010792
83	0x3de6b1f8	0.112644136
84	0x3e70b738	0.23507392
85	0x3c366762	0.011133047
86	0xbd4e639b	-0.05038796
87	0xbe2558e6	-0.16147193
88	0x3c58e68b	0.0132385595
89	0xbe3e52c4	-0.1858626
90	0x3e6101c3	0.21973328
91	0x3dc83479	0.09775633
92	0x3de39f23	0.11114337
93	0xbe607f89	-0.21923651
94	0x3e057ee0	0.1303668
95	0x3d44a2e6	0.048006915
96	0xbe03f63a	-0.12886897
97	0x3d47f8f6	0.048821412
98	0xbd80b4d2	-0.06284489
99	0x3d6bf15c	0.057603225
100	0xbe058330	-0.13038325
101	0xbc716783	-0.014734152
102	0xbe4c8d45	-0.19975765
103	0x3e750245	0.23926647
104	0x3b75e668	0.0037521366
105	0x3e1045ba	0.14089099
106	0x3b9427a6	0.004521328
107	0xbc4d5912	-0.012533443
108	0xbb2cf39a	-0.0026390315
109	0x3c02181a	0.007940317
110	0x3e1347df	0.14382885
111	0xbd5735fa	-0.05254171
112	0x3e0670f6	0.13129029
113	0xbd9f2ff9	-0.07772822
114	0x3b483f7a	0.0030555413
115	0x3d2238f7	0.039605107
116	0xbe3fc61b	-0.18727915
117	0x3d27bbed	0.040950704
118	0xbe0de284	-0.1385594
119	0xbdc89d5b	-0.09795638
120	0x3d2b0910	0.04175669
121	0xbdee6a1e	-0.11641334
122	0x3d862b57	0.06551235
123	0xbdd7c968	-0.10536462
124	0x3d994641	0.07484103
125	0xbcec0e82	-0.028815512
126	0x3d9b1a01	0.07573319
127	0xbc1f1ff5	-0.009712209
128	0xbd34c84d	-0.044136334
129	0xbdcf7caf	-0.101312034
130	0xbd7f5f06	-0.06234648
131	0x3dd79740	0.105268955
132	0x3e004279	0.12525357
133	0xbe62172c	-0.22079152
134	0xbd0565c9	-0.032567773
135	0x3e15bfed	0.14623995
136	0xbe2c72de	-0.16840693
137	0x3dc69b2f	0.09697568
138	0xbe233a3a	-0.1594018
139	0xbd250a15	-0.040292818
140	0x3d888a19	0.06666965
141	0xbe309d6d	-0.17247553
142	0xbde63d85	-0.11242203
143	0xbd95017b	-0.07275673
144	0x3de77c28	0.11302978
145	0xbb4a6637	-0.0030883679
146	0x3d212016	0.03933724
147	0x3dee6fd4	0.11642423
148	0xbdec73a8	-0.11545497
149	0xbe0032ca	-0.12519374
150	0xbe8e38f7	-0.27777836
151	0x3d0e9af5	0.034815747
152	0x3e0238df	0.12717007
153	0xbdef7e1f	-0.116939776
154	0x3e8bbb0d	0.27291146
155	0x3de2e8e7	0.11079579
156	0xbe0e62c6	-0.13904867
157	0x3e058535	0.13039096
158	0xbe78ffb5	-0.24316294
159	0x3e00e7b1	0.12588383
160	0xbd3a575b	-0.045493465
161	0xbd2a9a8f	-0.041651305
162	0xbc32bbeb	-0.010909061
163	0x3dde70b5	0.10861341
164	0xbd5e1760	-0.05422151
165	0x3e4b1053	0.19830446
166	0x3df5bc92	0.119988576
167	0x3c3a3d02	0.011367084
168	0xbd669125	-0.056290764
169	0xbd3d1eac	-0.04617183
170	0x3db5f72f	0.08885037
171	0x3dcf6205	0.101261176
172	0x3d085f88	0.03329423
173	0x3d1e0121	0.038575295
174	0xbbb240d5	-0.0054398575
175	0x3b95923d	0.004564552
176	0xbcb269e5	-0.02177901
177	0x3d9beb04	0.07613185
178	0xbdc614ab	-0.09671911
179	0xbde45d54	-0.111506134
180	0xbe0395bb	-0.12850086
181	0x3d88cc12	0.06679548
182	0x3df95cb2	0.12175883
183	0x3d786104	0.060639396
184	0x3c8fdb2a	0.01756056
185	0x3dcf4da4	0.10122231
186	0xbdd1522b	-0.102207504
187	0x3d1ec645	0.038763303
188	0x3dcc24b7	0.0996794
189	0xbd839117	-0.06424158
190	0xbdd269ee	-0.10274111
191	0xbdcb5cca	-0.099298075
192	0x3d9dd2c5	0.07706217
193	0x3e6c06e5	0.23049505
194	0x3d8e068a	0.06934841
195	0x3c77f8f1	0.015135036
196	0xbdf76270	-0.12079322
197	0x3db34a57	0.087544136
198	0x3c1b3aa0	0.0094744265
199	0xbd2ad165	-0.0417036
200	0x3d62cd37	0.05537149
201	0xbd765d5e	-0.060147636
202	0x3b87d7c3	0.004145594
203	0xbddd09ea	-0.107929066
204	0xbea4b150	-0.3216653
205	0xbd4a1263	-0.04933394
206	0x3d2113cc	0.03932552
207	0xbe1991a1	-0.1499696
208	0xbd700b1f	-0.058604356
209	0x3e16caae	0.14725754
210	0xbbfbadd4	-0.007680634
211	0xbe133b32	-0.1437805
212	0x3e6b726d	0.22992869
213	0x3da1915c	0.07889053
214	0x3e4d74c4	0.20064074
215	0x3c80368e	0.015651014
216	0x3e16e274	0.14734823
217	0xbd9a3522	-0.075296655
218	0x3dd50077	0.10400479
219	0xbd3cd7c9	-0.046104226
220	0x3d9b57fb	0.0758514
221	0x3cbb89dc	0.022892885
222	0xbe37e116	-0.17956957
223	0x3d588b0b	0.052866977
224	0xbd87732e	-0.06613766
225	0x3d1e4bcf	0.038646515
226	0x3c0047e0	0.007829636
227	0x3d9b1052	0.07571472
228	0xbd14b3e9	-0.03630439
229	0xbe04488c	-0.129183
230	0x3d7e6580	0.062108517
231	0x3e7f8ef4	0.24956876
232	0xbc8cb0dd	-0.017174179
233	0x3e38a2c1	0.18030836
234	0x3d6791cc	0.056535527
235	0xbdb68a09	-0.08913047
236	0x3ce870d7	0.028374119
237	0xbe847895	-0.25873247
238	0x3ccb763d	0.024836654
239	0x3dc07f43	0.09399273
240	0x3e1237dd	0.14279123
241	0x3d78556c	0.06062834
242	0xbde8a9a3	-0.11360481
243	0x3dc9adb7	0.098475866
244	0x3d59ea2e	0.053201847
245	0x3c690e17	0.014224551
246	0xbdc36373	-0.09540453
247	0x3dc7f116	0.0976278
248	0x3dbd856e	0.09253965
249	0x3c8168b8	0.015797004
250	0xbe10664d	-0.14101525
251	0x3debf8ca	0.11522062
252	0x3c11c8a3	0.008897933
253	0x3de00cc6	0.10939936
254	0x3d084078	0.033264607
255	0x3cb5bc77	0.022184594

6.bias f4 [2]
0	0x3da6dce9	0.08147604
1	0x3db0bf4f	0.08630239
